checkpoint.pth (torch, 291017 bytes, 10 tensors)

conv1.weight f4 [16, 1, 5, 5]
-0.057120193 -0.30182952 0.16043968 0.07707692 0.24735208 0.08425702 0.3857486 0.36400858
0.3894385 0.31777215 0.189097 0.29731935 0.052716456 -0.19335085 0.17997356 0.07660923
-0.25003707 -0.41060573 -0.0895056 -0.1476193 -0.20049524 -0.26528296 -0.09062821 -0.34644336
-0.23756284 0.1414382 0.25022087 0.01224173 0.30368707 0.34416935 0.2901606 0.089795746
0.19322605 0.15466748 -0.082965486 -0.20397115 0.06654244 0.06900668 -0.25479525 -0.2795834
-0.2639752 -0.3379298 -0.3990169 -0.16702938 -0.09855128 0.079691246 0.031102186 0.04771062
0.05165558 0.105716646 0.08555125 -0.108603805 0.29885942 0.24641831 -0.11837469 0.054160777
-0.27226332 0.19183496 0.3332984 0.31310686 0.044851962 0.028917624 -0.09583032 0.22762297
0.40620124 -0.2918567 -0.15058891 -0.1161514 -0.06971388 -0.064921916 -0.27301106 -0.18990101
-0.37051776 -0.03675919 -0.10741401 0.15131453 -0.032776143 -0.114864364 -0.09902713 0.035955373
-0.22415322 -0.046412982 -0.21016264 -0.088793606 -0.20741592 -0.18143342 0.012817424 -0.2462573
-0.06476592 -0.2694614 -0.07109999 -0.23498484 -0.17481528 -0.25697914 0.06924967 -0.015190356
0.09738912 -0.080923885 -0.07566911 0.15016255 0.048664883 -0.05407538 -0.15764537 -0.009699844
-0.36551324 0.12131686 -0.22278057 0.2865196 0.06516215 0.051404096 0.0031326462 -0.048539527
0.22327268 0.25947112 0.22036071 0.23926698 -0.17271611 -0.28662935 -0.19938836 0.14909007
0.016341522 0.12661278 -0.226556 0.091617934 -0.056334864 0.11254237 0.33141837 -0.13606904
-0.17877091 0.0035832196 0.3615906 0.31422365 -0.16280125 -0.08178937 -0.006189539 0.03617053
0.21369733 0.09779147 -0.17322272 -0.17344764 -0.020905618 0.27949333 0.41042095 0.29713297
-0.035976578 -0.20715807 0.060638282 0.3404956 0.27293503 -0.04812928 -0.10678901 -0.19345587
-0.43554407 -0.43515596 -0.29865107 0.030782843 0.12237875 -0.3696349 -0.18992335 0.031605184
0.27495036 0.3554554 0.35067233 0.31592026 0.35337737 -0.26493326 0.090333745 0.31645316
0.31831548 -0.07853916 0.03459149 -0.15190932 -0.06261889 -0.021679383 -0.068800785 -0.16694844
-0.11332235 0.010520813 0.0774117 0.2922723 -0.04825943 -0.16561878 -0.049834743 0.03480381
0.16217084 -0.23942353 -0.21889827 0.04090618 -0.11809445 -0.025192775 -0.016923884 -0.13316824
-0.2225684 0.12808907 0.039169993 -0.24557853 -0.23042086 -0.22178118 -0.20297275 0.025874997
-0.20112637 -0.19857688 0.2193793 0.20615478 0.015295023 0.24713087 0.25041527 -0.1666173
-0.15013157 -0.28367525 -0.034388315 -0.0030329917 0.04521058 0.033946965 0.20093066 -0.11386873
-0.0007303612 -0.13941659 0.17233358 0.3019562 -0.06413803 0.15942074 0.0023730642 -0.25925964
-0.26848233 -0.21976137 0.081821196 0.32117477 0.220323 -0.13148187 -0.041932035 0.1985101
0.3633962 0.21650659 0.036544 0.17105393 0.25188816 0.2837657 -0.13452725 -0.07418692
0.22484572 0.33310047 -0.148328 -0.029187035 -0.43306693 0.08113831 0.073153175 0.24330315
-0.08357265 -0.1521495 -0.0401886 0.07105992 -0.17915851 -0.1540104 -0.13510157 0.13618578
00000000: ddf6 69bd 6689 9abe 4d4a 243e 81da 9d3d
00000010: dd49 7d3e f28e ac3d d780 c53e 555f ba3e
00000020: 7c64 c73e 08b3 a23e a5a2 413e 3e3a 983e
00000030: 36ed 573d c4fd 45be fd4a 383e 4de5 9c3d
00000040: dc04 80be ea3a d2be b64e b7bd 8429 17be
00000050: a04e 4dbe 2bd3 87be 489b b9bd 0661 b1be
00000060: ac43 73be 2dd5 103e f31c 803e 8991 483c
00000070: df7c 9b3e f736 b03e ee8f 943e d5e6 b73d
00000080: 0ddd 453e 2761 1e3e cfe9 a9bd d0dd 50be
00000090: 6747 883d 6053 8d3d 8674 82be 8e25 8fbe
000000a0: c227 87be 2205 adbe f14b ccbe c009 2bbe
000000b0: 41d5 c9bd 2a35 a33d 03ca fe3c 366c 433d
000000c0: cd94 533d f881 d83d 7e35 af3d ac6b debd
000000d0: 1a04 993e 1555 7c3e 6e6e f2bd b1d7 5d3d
000000e0: 1966 8bbe 6270 443e 16a6 aa3e 8b4f a03e
000000f0: b1b6 373d a7e4 ec3c b042 c4bd ff15 693e
00000100: 9cf9 cf3e 3e6e 95be fb33 1abe c9e0 edbd
00000110: 27c6 8ebd c8f5 84bd 1bc8 8bbe 6975 42be
00000120: 81b4 bdbe ce90 16bd e0fb dbbd 32f2 1a3e
00000130: 4740 06bd 023e ebbd bcce cabd f145 133d
00000140: 6c88 65be 8a1b 3ebd e034 57be 6cd9 b5bd
00000150: d764 54be afc9 39be 2c00 523c e02a 7cbe
00000160: ffa3 84bd d8f6 89be df9c 91bd de9f 70be
00000170: c702 33be c592 83be c5d2 8d3d f9e0 78bc
00000180: f273 c73d 6cbb a5bd 68f8 9abd 36c4 193e
00000190: d454 473d 257e 5dbd ca6d 21be 18ec 1ebc
000001a0: 8d24 bbbe f974 f83d 9720 64be b2b2 923e
000001b0: bc73 853d 1a8d 523d 154d 4d3b 62d1 46bd
000001c0: 98a1 643e 66d9 843e 3da6 613e 6702 753e
000001d0: 7edc 30be 15c1 92be 762c 4cbe 11ab 183e
000001e0: a8de 853c c8a6 013e 4cfe 67be 2fa2 bb3d
000001f0: 63bf 66bd 9d7c e63d abaf a93e af55 0bbe
00000200: b90f 37be 73d4 6a3b 6722 b93e ece1 a03e
00000210: 5fb5 26be 2f81 a7bd 9ed1 cabb 8d27 143d
00000220: 79d3 5a3e e546 c83d 4c61 31be 429c 31be
00000230: 4242 abbc c019 8f3e b222 d23e d021 983e
00000240: 2d5c 13bd 3f21 54be d95f 783d 7055 ae3e
00000250: 24be 8b3e 3523 45bd 32b4 dabd 4c19 46be
00000260: a2ff debe c3cc debe cbe8 98be 4d2c fc3c
00000270: b6a1 fa3d c940 bdbe 447b 42be 7074 013d
00000280: 4bc6 8c3e 40fe b53e 538b b33e 4dc0 a13e
00000290: e1ed b43e 55a5 87be e600 b93d 2606 a23e
000002a0: 3ffa a23e 24d9 a0bd ceaf 0d3d 1e8e 1bbe
000002b0: 553e 80bd f698 b1bc 6de7 8cbd 88f4 2abe
000002c0: 8c15 e8bd 7d5f 2c3c 068a 9e3d b7a4 953e
000002d0: aeab 45bd f897 29be 841f 4cbd 718e 0e3d
000002e0: 1d10 263e 712b 75be de26 60be 3d8d 273d
000002f0: 81db f1bd 1461 cebc f5a3 8abc 415d 08be
00000300: f8e8 63be c829 033e b770 203d f078 7bbe
00000310: 72f3 6bbe 9b1a 63be 17d8 4fbe cdf7 d33c
00000320: 12f4 4dbe bd57 4bbe f8a4 603e 3d1a 533e
00000330: fa97 7a3c e00f 7d3e 6e36 803e ba9d 2abe
00000340: 17bc 19be e23d 91be c3da 0cbd 28c5 46bb
00000350: bb2e 393d f90b 0b3d c4c0 4d3e 0234 e9bd
00000360: b675 3fba 39c3 0ebe 3778 303e 019a 9a3e
00000370: cd5a 83bd 313f 233e 6985 1b3b aebd 84be
00000380: 8476 89be 2009 61be df91 a73d 0571 a43e
00000390: 5a9c 613e 2fa3 06be edc0 2bbd 3b46 4b3e
000003a0: 110f ba3e e7b3 5d3e 29af 153d c328 2f3e
000003b0: 7cf7 803e bd49 913e 83c1 09be 50ef 97bd
000003c0: f53d 663e 258c aa3e 4ce3 17be a619 efbc
000003d0: f3ba ddbe d82b a63d 55d1 953d 7624 793e
000003e0: 2328 abbd 14cd 1bbe cd9c 24bd dd87 913d
000003f0: 5475 37be e7b4 1dbe 1158 0abe 4974 0b3e

conv1.bias f4 [16]
0.18190221 0.08665985 -0.015276661 -0.07471939 0.13773015 0.0669433 0.0359308 0.094956994
0.0751119 0.038278148 0.048660822 0.1996503 0.0009968021 -0.05249638 0.2277974 0.100627296
00000000: 9344 3a3e b87a b13d f64a 7abc 7b06 99bd
00000010: 2209 0d3e 9219 893d 2d2c 133d d078 c23d
00000020: 45d4 993d 8cc9 1c3d 9250 473d 2171 4c3e
00000030: 21a7 823a 7206 57bd b943 693e af15 ce3d

conv2.weight f4 [16, 16, 3, 3]
-0.14400952 0.08944277 0.23480056 -0.04705435 0.14826691 0.04510946 0.045939174 -0.013070241
0.08888564 -0.033536498 0.010695426 0.07226003 -0.036813024 -0.026824541 0.16768639 0.08306413
0.037854806 0.11972827 -0.18388705 -0.16955669 -0.052707765 -0.18327391 -0.10724831 0.0067223217
-0.10593466 0.010605444 0.045930024 0.06959892 -0.091683134 -0.007865543 -0.111285396 -0.038289588
-0.08017054 -0.051890474 -0.0163979 -0.020124279 -0.046599235 0.046337295 0.17201672 -0.059644092
0.003992881 0.03507807 0.0049046497 0.117178604 0.16700156 -0.027000872 0.011529892 0.06496082
-0.1554509 -0.09610262 0.11919997 0.08283548 0.16054717 0.04419348 0.09694016 0.057756975
-0.004710982 0.12784673 0.0049477513 -0.0016505476 0.028020265 -0.072435856 0.049959324 -0.06025632
-0.08340534 -0.1490388 -0.15311362 -0.11179722 -0.095571525 -0.10739951 -0.043589193 0.010423827
0.057898916 0.010809502 0.11920383 0.039869454 0.17320618 0.12228258 0.14832483 0.12304454
0.005447154 0.031028952 0.08474565 0.08398697 0.18029901 0.14546426 0.117640264 0.10491956
0.033526696 -0.037963666 -0.06997543 -0.036130767 0.11803862 -0.12432062 -0.03571715 0.09639755
0.08895555 -0.040213566 -0.016540125 0.11220167 0.15700127 -0.047399253 0.13130815 -0.018235758
-0.050225724 0.060145974 -0.059478275 -0.07321477 -0.03707719 -0.10936915 0.013331474 0.009694361
-0.014226685 0.1285369 -0.030697318 -0.034223657 -0.037582844 -0.02235207 -0.14316769 -0.016153224
-0.11575848 -0.028815622 -0.088168286 -0.025698308 -0.053484797 -0.14784117 0.09902747 -0.0346094
0.008154004 0.055269804 -0.11475145 -0.042208824 -0.030616844 0.043738216 0.053785954 -0.027226923
0.059237245 -0.031779673 0.16412367 0.052742057 0.020466253 0.14888187 0.073535845 -0.013472767
0.15846069 0.09417027 0.029385567 -0.020756666 -0.18082489 -0.1937881 -0.08545958 0.01695098
0.06640007 0.24102995 0.20957929 0.15932207 0.065479755 0.043620583 -0.104758166 -0.11112546
-0.0861576 -0.06623571 0.20600314 -0.017261274 0.020032082 -0.13290282 -0.34429964 -0.2492309
-0.05940188 -0.066808626 -0.03681604 0.11174145 0.10972306 0.06520635 0.09647894 0.079990126
0.15029544 0.02608452 -0.0005103007 0.03962916 0.04613289 -0.11404161 -0.25231594 -0.14564194
-0.24494277 -0.17276834 0.092859894 0.094425865 0.07814011 -0.14706948 -0.18707874 -0.08287139
-0.003587845 -0.03040125 -0.016619543 -0.019761534 -0.016763266 0.034984086 -0.17619264 -0.21513692
-0.2324206 0.06642316 0.11171342 0.06722349 0.18651667 0.1470893 0.1854203 0.09030726
0.083248585 0.08252584 -0.020479128 -0.02998212 -0.03337955 0.039338015 -0.007870401 0.007218194
0.0853519 0.008927253 -0.045926612 0.0052405274 -0.088738434 -0.09096393 -0.051991556 0.038670417
0.00089255435 -0.063825645 -0.08906539 0.0898728 -0.25126615 -0.19374579 -0.036177333 0.14157233
0.19247633 0.21047197 0.17336379 0.052194953 -0.03733558 -0.19196497 -0.21124339 -0.048572935
0.0041006706 0.15543093 0.01891504 -0.06760605 -0.164286 -0.13389894 0.06934667 0.15164544
0.10073747 0.10318781 0.118113756 0.075109676 0.14268048 0.11418016 0.0816709 0.054106798
00000000: 3b77 13be c52d b73d 8f6f 703e 10bc 40bd
00000010: 48d3 173e b2c4 383d b72a 3c3d 9024 56bc
00000020: ad09 b63d 915d 09bd de3b 2f3c 11fd 933d
00000030: 41c9 16bd 24bf dbbc fbb5 2b3e 871d aa3d
00000040: a40d 1b3d 1834 f53d e34c 3cbe 45a0 2dbe
00000050: 19e4 57bd 28ac 3bbe 01a5 dbbd ec46 dc3b
00000060: 45f4 d8bd 75c2 2d3c 1f21 3c3d e189 8e3d
00000070: 5ec4 bbbd 7ade 00bc 99e9 e3bd 8bd5 1cbd
00000080: 7430 a4bd 1b8b 54bd e454 86bc acdb a4bc
00000090: d7de 3ebd 2dcc 3d3d 2725 303e 5d4d 74bd
000000a0: b7d6 823b 06ae 0f3d 2fb7 a03b 56fb ef3d
000000b0: 7502 2b3e ef30 ddbc dfe7 3c3c 2e0a 853d
000000c0: 852e 1fbe 73d1 c4bd 1d1f f43d a6a5 a93d
000000d0: 7a66 243e 3904 353d 9088 c63d 9492 6c3d
000000e0: 955e 9abb 41ea 023e bf20 a23b 3057 d8ba
000000f0: c18a e53c 4059 94bd 26a2 4c3d 55cf 76bd
00000100: 6bd0 aabd a19d 18be d1c9 1cbe f1f5 e4bd
00000110: 01bb c3bd 46f4 dbbd 958a 32bd b3c8 2a3c
00000120: 6a27 6d3d 561a 313c 2321 f43d 274e 233d
00000130: f65c 313e 4a6f fa3d 77e2 173e c7fe fb3d
00000140: 0a7e b23b 6e30 fe3c 218f ad3d 5c01 ac3d
00000150: 4ea0 383e 95f4 143e 61ed f03d 11e0 d63d
00000160: 4a53 093d ca7f 1bbd 474f 8fbd dbfd 13bd
00000170: 3bbe f13d cf9b febd 254c 12bd 146c c53d
00000180: 542e b63d fbb6 24bd 287f 87bc fdc9 e53d
00000190: f1c4 203e b825 42bd a575 063e 2863 95bc
000001a0: 7db9 4dbd a05b 763d 7e9f 73bd a0f1 95bd
000001b0: 40de 17bd effc dfbd 416c 5a3c 19d5 1e3c
000001c0: 0b17 69bc 2d9f 033e f178 fbbc 1b2e 0cbd
000001d0: 78f0 19bd b01b b7bc 8d9a 12be c453 84bc
000001e0: c812 edbd bd0e ecbc 9391 b4bd 4285 d2bc
000001f0: e012 5bbd ad63 17be eace ca3d 96c2 0dbd
00000200: 5f98 053c 9762 623d cf02 ebbd 29e3 2cbd
00000210: 2dd0 fabc d826 333d a94e 5c3d ff0a dfbc
00000220: c1a2 723d 672b 02bd 0910 283e 0e08 583d
00000230: d8a8 a73c 7d74 183e f699 963d e1bc 5cbc
00000240: 8543 223e 58dc c03d 00ba f03c e209 aabc
00000250: 292a 39be 6370 46be 6f05 afbd c8dc 8a3c
00000260: c3fc 873d 8ed0 763e f49b 563e 5325 233e
00000270: 401a 863d 7fab 323d 738b d6bd bf95 e3bd
00000280: 6573 b0bd 97a6 87bd 7df2 523e 8467 8dbc
00000290: 521a a43c ad17 08be 0b48 b0be 6336 7fbe
000002a0: 634f 73bd f6d2 88bd 6acc 16bd b4d8 e43d
000002b0: 7cb6 e03d e88a 853d c096 c53d ddd1 a33d
000002c0: 0ce7 193e 34af d53c b3c5 05ba 3052 223d
000002d0: d7f5 3c3d a68e e9bd 8e2f 81be 2923 15be
000002e0: 47d2 7abe 2fea 30be 542d be3d 5962 c13d
000002f0: ec07 a03d 6299 16be 9291 3fbe 7ab8 a9bd
00000300: 0d22 6bbb 0b0c f9bc b525 88bc f1e2 a1bc
00000310: 1e53 89bc 794b 0f3d d86b 34be da4c 5cbe
00000320: aaff 6dbe de08 883d 01ca e43d 78ac 893d
00000330: 3afe 3e3e 949e 163e d2de 3d3e 03f3 b83d
00000340: 3c7e aa3d 4f03 a93d d8c3 a7bc 109d f5bc
00000350: ffb8 08bd e620 213d dbf2 00bc 9a86 ec3b
00000360: facc ae3d 9d43 123c 8b1d 3cbd bbb8 ab3b
00000370: 7fbc b5bd 4c4b babd 19f5 54bd df64 1e3d
00000380: 4ffa 693a 05b7 82bd ea67 b6bd 3b0f b83d
00000390: f5a5 80be 4c65 46be af2e 14bd 56f8 103e
000003a0: 8418 453e f785 573e 4786 313e 60ca 553d
000003b0: 31ed 18bd 7792 44be 3050 58be 6af4 46bd
000003c0: eb5e 863b 4929 1f3e b7f3 9a3c 0a75 8abd
000003d0: 973a 28be ce1c 09be a005 8e3d f148 1b3e
000003e0: 724f ce3d 2154 d33d a0e5 f13d 1ad3 993d
000003f0: d51a 123e 4ad7 e93d 1343 a73d 179f 5d3d

conv2.bias f4 [16]
0.0018923633 0.09005292 0.019085554 0.049662955 0.021660179 -0.043480016 -0.009772109 0.02546263
0.018111184 0.04821632 -0.037522394 -0.0032472182 -0.01762225 0.025164321 0.089802526 -0.080650434
00000000: 2d09 f83a aa6d b83d 4f59 9c3c 626b 4b3d
00000010: b070 b13c 1a18 32bd 321b 20bc 0197 d03c
00000020: e85d 943c 7a7e 453d 15b1 19bd 48cf 54bb
00000030: 895c 90bc 6825 ce3c 63ea b73d 0e2c a5bd

fc1.weight f4 [128, 400]
0.032690737 0.0763808 0.041413687 -0.084447086 -0.08304899 0.03061737 -0.009102318 -0.074343465
-0.037603676 -0.10337861 0.07169705 0.011666124 -0.048106313 -0.10045938 -0.012370253 0.013724415
0.036699582 -0.062278662 0.02103389 0.08334813 -0.008562622 -0.0052744127 0.028555226 -0.0020994279
-0.09621494 0.074687175 0.09343855 0.044648755 0.049620777 0.0559391 0.018279467 -0.0050388696
0.06415987 0.06561721 -0.0002853175 0.01839169 0.07450336 0.014201317 0.020849431 0.05116944
-0.038177483 0.042434223 0.02939723 0.07742633 0.036077876 -0.03987619 -0.030711062 -0.014367586
0.0300591 0.067729875 0.0021266872 0.018980782 -0.08474769 -0.018326622 0.0030394462 0.06637461
0.024698852 0.014358447 -0.0099994335 0.03619275 0.017372856 0.046545826 0.061501004 0.053851847
0.102660835 0.03524481 0.055262648 0.030802757 0.052729517 -0.005262543 0.09264173 0.009780059
-0.00327659 0.034488887 0.009324517 0.046220943 0.025389997 -0.02532936 0.03342345 0.032607514
0.025040643 0.054373894 -0.01974703 -0.040454812 -0.08682893 -0.011513284 -0.004389967 -0.04352978
-0.036886692 -0.101964064 0.012800871 -0.015750835 -0.04477103 0.014672366 0.042722557 -0.07648712
-0.035302985 -0.014829132 0.057427395 0.0011282268 -0.0438129 0.019648224 -0.024694119 0.001743088
-0.019318923 -0.036220744 0.04723471 0.023482118 -0.023633681 0.021480925 0.0784412 0.0020471334
-0.03280525 -0.0077353134 0.0216046 -0.01989619 0.031825237 -0.05690538 0.028263498 0.04793601
-0.07439439 -0.0027257486 -0.008036269 0.019203104 0.02264635 -0.029666096 0.026104439 0.005785082
0.009716864 0.03680944 -0.023688406 0.05417019 0.029269395 0.03719011 0.034804616 -0.0011653504
0.040586304 -0.05459426 0.012054937 -0.012090198 -0.046419334 0.06718896 0.044908695 -0.02948444
0.0564411 -0.018607773 0.028372144 0.059983306 0.016328963 0.0336746 -0.038943507 -5.6225545e-06
0.0012380317 0.05564489 0.07069094 0.024260107 0.046732068 0.058124755 -0.03276218 0.044150103
-0.031157682 0.031338945 -0.10300539 -0.09550761 -0.023159081 -0.05252669 -0.028983006 -0.1630244
-0.10805377 -0.002817482 0.011080676 0.019427005 0.051114324 0.12561564 0.090436935 -0.050444324
0.094398946 -0.09475518 -0.1901153 -0.1501067 0.041905425 0.031725153 0.03543357 -0.06751907
-0.020999083 -0.0026868628 -0.08197686 -0.044119764 -0.03492528 0.033435673 0.123698875 0.090347365
-0.037274506 0.018432412 0.052520156 0.10836746 0.089390196 -0.0026668967 -0.066459 -0.083153374
0.022412688 -0.0065887976 0.029089186 -0.084332705 -0.06700914 -0.019862775 -0.03249953 -0.086860895
-0.06722639 -0.048813947 0.037046276 0.031695653 0.031011041 0.037867576 0.06840409 -0.004328867
0.058193605 0.04169684 0.015727434 0.04123401 -0.0069866176 -0.020478673 -0.022762405 -0.030512078
-0.13976587 -0.019985847 -0.016299592 0.047396354 0.010218377 -0.043626778 0.020179635 0.019534105
-0.020350179 -0.041041005 0.01751781 0.0032298858 0.03096803 -0.01883309 0.02742567 0.01897707
-0.0755108 0.04190753 -0.029752104 -0.08077246 -0.04968065 -0.06437506 0.02211048 0.015285468
0.008439274 0.03958499 0.020891134 0.049561612 -0.018331412 -0.10690094 -0.063962 -0.007029444
00000000: b9e6 053d 896d 9c3d 66a1 293d 98f2 acbd
00000010: 9715 aabd 47d1 fa3c e421 15bc 6341 98bd
00000020: 5006 1abd 2ab8 d3bd e7d5 923d 4523 3f3c
00000030: 200b 45bd a6bd cdbd 9aac 4abc 5edc 603c
00000040: 4d52 163d e917 7fbd 444f ac3c 6db2 aa3d
00000050: 3d4a 0cbc fbd4 acbb a6ec e93c 8e96 09bb
00000060: 570c c5bd 97f5 983d b65c bf3d 9de1 363d
00000070: 283f 4b3d 6620 653d d2be 953c 1a1d a5bb
00000080: 4066 833d 5162 863d ab96 95b9 2baa 963c
00000090: 3895 983d a4ac 683c 6dcc aa3c 0c97 513d
000000a0: fe5f 1cbd 82cf 2d3d 76d2 f03c b291 9e3d
000000b0: 65c6 133d 3755 23bd c495 fbbc 0666 6bbc
000000c0: 803e f63c f6b5 8a3d e45f 0b3b 967d 9b3c
000000d0: 3290 adbd b621 96bc 7231 473b 69ef 873d
000000e0: 3f55 ca3c b13f 6b3c aad4 23bc d93e 143d
000000f0: 8551 8e3c d6a6 3e3d 7ae8 7b3d c193 5c3d
00000100: d83f d23d dd5c 103d 165b 623d 1056 fc3c
00000110: e8fa 573d 6971 acbb f3ba bd3d 8a3c 203c
00000120: 0fbc 56bb 3844 0d3d dcc5 183c 2c52 3d3d
00000130: affe cf3c 857f cfbc 07e7 083d 758f 053d
00000140: 0922 cd3c 29b7 5e3d 86c4 a1bc f2b3 25bd
00000150: 5ed3 b1bd 37a2 3cbc b6d9 8fbb 484c 32bd
00000160: 8016 17bd 89d2 d0bd bfba 513c e507 81bc
00000170: d461 37bd 5d64 703c d9fd 2e3d 47a5 9cbd
00000180: dd99 10bd e3f5 72bc fd38 6b3d 02e1 933a
00000190: 2875 33bd 50f5 a03c 524b cabc 5478 e43a
000001a0: b842 9ebc 345c 14bd 2f79 413d 925d c03c
000001b0: 6c9b c1bc c4f8 af3c c8a5 a03d 3329 063b
000001c0: cc5e 06bd 8378 fdbb 21fc b03c 56fd a2bc
000001d0: 2e5b 023d 9e15 69bd da88 e73c 8d58 443d
000001e0: 165c 98bd 79a2 32bb 8eaa 03bc d44f 9d3c
000001f0: d784 b93c 5006 f3bc fad8 d53c c990 bd3b
00000200: 7b33 1f3c 7fc5 163d 300e c2bc 90e1 5d3d
00000210: 5fc6 ef3c a854 183d 498f 0e3d acbe 98ba
00000220: d33d 263d 3b9e 5fbd 1282 453c f715 46bc
00000230: 3322 3ebd 5e9a 893d 2ef2 373d 5a89 f1bc
00000240: c82e 673d 546f 98bc b36c e83c 0eb1 753d
00000250: 51c4 853c 61ee 093d 3a83 1fbd 60a9 bcb6
00000260: 7345 a23a e5eb 633d 69c6 903d 22bd c63c
00000270: 206a 3f3d 3914 6e3d a331 06bd bdd6 343d
00000280: 653e ffbc 445d 003d 7df4 d2bd 7e99 c3bd
00000290: 1db8 bdbc 3a26 57bd c56d edbc deef 26be
000002a0: 4c4b ddbd 81a5 38bb b98b 353c 6225 9f3c
000002b0: 415d 513d 63a1 003e 0037 b93d b59e 4ebd
000002c0: 3c54 c13d 010f c2bd 96ad 42be 92b5 19be
000002d0: 06a5 2b3d 3cf2 013d cb22 113d 7047 8abd
000002e0: 4506 acbc 1416 30bb 7ce3 a7bd edb6 34bd
000002f0: cf0d 0fbd d8f3 083d d655 fd3d 0a08 b93d
00000300: 27ad 18bd 92ff 963c 601f 573d c2ef dd3d
00000310: 3512 b73d 1ac7 2ebb a81b 88bd 514c aabd
00000320: d09a b73c d7e6 d7bb 724c ee3c a0b6 acbd
00000330: 173c 89bd 42b7 a2bc 3a1e 05bd 20e4 b1bd
00000340: fdad 89bd 22f1 47bd d6bd 173d 4dd3 013d
00000350: de0a fe3c 081b 1b3d 7217 8c3d 2bd9 8dbb
00000360: 6b5c 6e3d 4eca 2a3d d2d6 803c fee4 283d
00000370: ffef e4bb e4c2 a7bc 3978 babc 77f4 f9bc
00000380: c91e 0fbe 5cb9 a3bc b986 85bc ae22 423d
00000390: fb6a 273c feb1 32bd c34f a53c fd05 a03c
000003a0: 6bb5 a6bc 9d1a 28bd 8381 8f3c 7eac 533b
000003b0: abb0 fd3c da47 9abc ccab e03c cd75 9b3c
000003c0: 68a5 9abd 3ba7 2b3d afba f3bc 086c a5bd
000003d0: f07d 4bbd 12d7 83bd 0a21 b53c e66f 7a3c
000003e0: e144 0a3c df23 223d e223 ab3c 1e01 4b3d
000003f0: c22b 96bc e1ee dabd 82fe 82bd 4057 e6bb

fc1.bias f4 [128]
0.003478874 0.0038377019 0.0625077 0.015164392 -0.00012393377 -0.013091449 0.054837324 -0.0019117869
0.028935364 0.03513769 -0.014356569 -0.046535276 -0.0014758232 -0.0002926692 -0.0075425883 0.006433925
-0.03906071 0.016096279 0.061215825 -0.0048548123 -0.018799784 0.0020482927 0.06163938 0.04549633
0.04780596 -0.027142247 -0.005129285 0.06300138 0.025114343 0.07769039 -0.049773265 -0.053723726
-0.047084726 -0.045130573 0.05409542 0.04983062 0.05348176 0.05562513 0.043268345 -0.031395633
0.0027242287 0.042062424 -0.05562966 -0.009501746 0.011804337 0.01973693 -0.04697922 0.020738402
0.009199286 0.027266191 -0.06560138 0.019606676 -0.0048991595 -0.005804414 0.009883672 0.055425845
-0.02762605 -0.027527671 0.026044099 -0.026031498 0.015149936 0.024512736 -0.030095043 0.020455295
-0.03764592 0.0015017439 0.00040157425 0.03348864 -0.03888741 0.07070961 -0.05181063 -0.016815014
0.010136929 -0.0272225 0.03619168 0.072310336 0.022215843 0.0007130358 -0.052463006 0.010286204
-0.0030651425 0.0151567105 0.006560862 0.022699878 -0.004188432 0.04342547 0.02884057 0.007351667
0.02994304 -0.00672969 -0.057036504 -0.014059193 0.012537789 0.0103578605 0.024561064 -0.061953448
0.017129457 0.007930254 0.06572622 -0.027062237 -0.016004955 -0.023199527 0.004645373 -0.018394005
-0.0122580305 -0.106980965 0.052329212 -0.05151613 0.011112391 -0.0042947032 -0.048065487 0.07976649
0.022184901 0.055261187 0.04031151 -0.028836539 -0.10303106 -0.0056038965 -0.014645794 0.042058375
0.06105006 -0.0036992233 0.027825624 -0.020155229 -0.03473947 -0.008854718 0.040499236 -0.0012728181
00000000: d2fd 633b f481 7b3b 0904 803d 1274 783c
00000010: 38f4 01b9 847d 56bc 1a9d 603d ec94 faba
00000020: db09 ed3c 8aec 0f3d d137 6bbc c69b 3ebd
00000030: 6970 c1ba 6571 99b9 d127 f7bb add3 d23b
00000040: 20fe 1fbd 58dc 833c 72bd 7a3d 1e15 9fbb
00000050: 0102 9abc a63c 063b 9379 7c3d 5c5a 3a3d
00000060: 2fd0 433d 6b59 debc 9013 a8bb de06 813d
00000070: 98bc cd3c 241c 9f3d 0ddf 4bbd 690d 5cbd
00000080: eadb 40bd d6da 38bd 2993 5d3d 311b 4c3d
00000090: b10f 5b3d 2dd7 633d 263a 313d b598 00bd
000000a0: f988 323b a649 2c3d eddb 63bd 36ad 1bbc
000000b0: fa66 413c 58af a13c 486d 40bd 95e3 a93c
000000c0: 9ab8 163c 595d df3c 045a 86bd 2e9e a03c
000000d0: 2189 a0bb f432 bebb 20ef 213c 3606 633d
000000e0: 0750 e2bc b681 e1bc 6f5a d53c 0240 d5bc
000000f0: 7037 783c efce c83c e189 f6bc dd91 a73c
00000100: 9c32 1abd 2ad6 c43a 628a d239 622b 093d
00000110: 6848 1fbd 33d0 903d 6237 54bd a4bf 89bc
00000120: 5d15 263c b801 dfbc ba3d 143d 7117 943d
00000130: 00fe b53c 06eb 3a3a 73e3 56bd 7787 283c
00000140: 8fe0 48bb da53 783c 80fc d63b 18f5 b93c
00000150: 1d3f 89bb e8de 313d 0f43 ec3c 41e6 f03b
00000160: 1b4b f53c bb84 dcbb 1c9f 69bd 8858 66bc
00000170: 4c6b 4d3c 04b4 293c 4934 c93c e6c2 7dbd
00000180: 1353 8c3c e5ed 013c 789b 863d a0b1 ddbc
00000190: d31c 83bc ef0c bebc 3738 983b 06af 96bc
000001a0: e8d5 48bc d618 dbbd 2857 563d 9402 53bd
000001b0: bf10 363c 95ba 8cbb 51e0 44bd 9d5c a33d
000001c0: 1cbd b53c 8e59 623d af1d 253d 9b3a ecbc
000001d0: f301 d3bd e4a0 b7bb eaf4 6fbc 6745 2c3d
000001e0: a10f 7a3d ab6e 72bb 90f2 e33c 941c a5bc
000001f0: f94a 0ebd 6113 11bc 87e2 253d b0d4 a6ba

fc2.weight f4 [128, 128]
0.05736241 -0.06236508 0.06054546 0.039909523 0.077911474 -0.115254946 0.051237054 0.058410972
0.08664631 -0.006179276 -0.073373124 -0.25243744 -0.043589488 -0.09098933 -0.10451986 -0.23140986
-0.028538711 -0.1611821 0.049328655 0.06235401 0.07674161 0.021470655 0.08726431 0.07433397
-0.14999864 -0.21243103 -0.097837806 -0.026313815 0.045402624 0.021966076 -0.09245112 0.018493868
-0.03234887 -0.07590174 0.03549672 0.021484267 0.039496873 -0.053279843 0.032579448 0.056956563
0.005758423 -0.1964208 -0.07518744 -0.023682022 0.030234639 0.064491615 0.045222696 0.06040998
0.003080331 0.043973226 0.07619674 0.01898991 -0.052998666 0.06467495 0.021347582 0.07873326
-0.08425226 0.034371886 0.043885462 -0.1304129 -0.0045852386 0.07023038 -0.1723214 -0.05335584
-0.24002068 0.04585042 -0.06184675 -0.02249673 0.030777348 0.0055290954 -0.085290216 -0.035672665
0.08082076 0.022873623 -0.13310413 -0.070635594 0.03539073 -0.00895816 0.022373486 0.0031601624
-0.0041731456 0.12011044 -0.07321625 0.051352657 -0.11182119 -0.049088556 0.05215953 0.032309454
-0.004280077 -0.01668803 -0.14818057 -0.022660922 -0.21877499 0.06373613 0.12985836 -0.009756027
-0.00030122822 -0.12282914 -0.08187642 -0.006063407 0.070894726 -0.037236214 -0.010596012 0.089260325
-0.2444897 0.039370805 0.047181644 -0.10841662 -0.032324202 0.00397345 0.021646498 0.08440819
0.0065405173 -0.010364135 0.11024697 -0.09953051 -0.23481141 -0.17924368 0.0077097765 -0.0005254502
0.056339692 -0.2736814 0.0898082 0.04377156 -0.18125184 -0.15976056 0.032903627 0.056257077
-0.044958137 -0.00018668655 0.07397807 0.046363153 -0.017943664 -0.14590882 0.018853556 -0.0717656
0.011762552 0.055038888 0.052618265 0.042038966 0.034600668 -0.09457532 0.06171801 0.11796538
-0.18371561 0.008048158 0.07348612 0.13186015 -0.04866771 0.10675743 0.13970913 -0.15789632
0.07902492 -0.008113368 0.05462462 0.04409574 -0.103586406 -0.047768865 -0.08462631 -0.08008324
0.012296891 0.042518523 0.010929326 0.0006637593 0.074112035 0.07839944 0.022737857 0.16524293
0.05562169 -0.20987499 -0.052119736 0.010034654 0.09031093 -0.03184134 -0.11144166 0.06954913
0.10567904 -0.11100596 -0.11296403 0.006928022 0.019994196 -0.22082694 -0.035468824 -0.07311311
-0.09567799 0.043009304 -0.22642468 0.10070373 -0.08416255 -0.019953437 -0.09301255 -0.19478336
-0.025477689 -0.0059637595 0.027638622 -0.31624955 -0.0938203 0.06855227 -0.06589156 0.054118875
-0.027227907 -0.14563675 -0.11951773 0.097083844 -0.07701856 0.027379727 -0.08954229 0.0718362
-0.0063243145 0.017995477 -0.010700064 0.068182 0.08275641 0.050002307 0.06953481 0.07791034
0.03834063 0.04542527 -0.122322045 -0.0009651489 0.027511822 0.023955854 0.042810388 -0.10364352
-0.15498829 0.04579182 0.06897334 -0.031475984 0.12047606 0.06901979 -0.06344099 0.0801494
-0.07455305 0.01399324 -0.14127162 -0.09117919 -0.19701487 -0.07641553 0.0528183 -0.09650698
-0.10147449 0.026359502 0.060898636 -0.035723068 0.06114823 -0.13217229 -0.060567465 -0.016318504
-0.057731587 0.07642806 -0.09997123 -0.032336313 -0.03400423 0.061405778 0.0044191433 0.10521114
00000000: d9f4 6a3d 8772 7fbd 84fe 773d 2b78 233d
00000010: 0d90 9f3d c90a ecbd f2dd 513d 5840 6f3d
00000020: 9f73 b13d 867b cabb a644 96bd 7b3f 81be
00000030: e48a 32bd 9d58 babd 820e d6bd b5f6 6cbe
00000040: 04ca e9bc ec0c 25be d80c 4a3d eb66 7f3d
00000050: b52a 9d3d 3ae3 af3c a1b7 b23d 693c 983d
00000060: 3e99 19be 8587 59be 305f c8bd 1290 d7bc
00000070: 1af8 393d 33f2 b33c 0357 bdbd 7480 973c
00000080: 4080 04bd 5f72 9bbd 0265 113d c6ff af3c
00000090: 79c7 213d f73b 5abd 0772 053d 494b 693d
000000a0: 27b1 bc3b 8922 49be dffb 99bd cd00 c2bc
000000b0: a2ae f73c 2e14 843d 6f3b 393d 7570 773d
000000c0: 61df 493b 451d 343d 090d 9c3d ba90 9b3c
000000d0: 2115 59bd 4d74 843d 20e1 ae3c e73e a13d
000000e0: 738c acbd 89c9 0c3d 3ec1 333d f68a 05be
000000f0: c53f 96bb f2d4 8f3d 0575 30be a78b 5abd
00000100: fbc7 75be a6cd 3b3d 0553 7dbd 104b b8bc
00000110: c720 fc3c 6a2d b53b a3ac aebd 801d 12bd
00000120: 5b85 a53d 7761 bb3c 734c 08be 65a9 90bd
00000130: dff5 103d 3fc5 12bc 9a48 b73c ba1a 4f3b
00000140: e2be 88bb 76fc f53d 67f2 95bd 2a57 523d
00000150: 8202 e5bd 1511 49bd 3ba5 553d eb56 043d
00000160: e33f 8cbb 56b5 88bc a6bc 17be 66a3 b9bc
00000170: 8d06 60be 1788 823d 97f9 043e bed7 1fbc
00000180: 2bee 9db9 d88d fbbd d3ae a7bd 8baf c6bb
00000190: 4131 913d 0085 18bd e59a 2dbc 1ece b63d
000001a0: 825b 7abe 4843 213d 8a41 413d 8809 debd
000001b0: 6266 04bd b733 823b ff53 b13c 33de ac3d
000001c0: d651 d63b 55ce 29bc 2ac9 e13d a7d6 cbbd
000001d0: 6772 70be a88b 37be 4ba2 fc3b 5ebe 09ba
000001e0: 73c4 663d f81f 8cbe 5ded b73d cf49 333d
000001f0: 159a 39be 4698 23be f4c5 063d d26d 663d
00000200: 0626 38bd 4ac1 43b9 d081 973d 4ae7 3d3d
00000210: 97fe 92bc 1f69 15be c672 9a3c d8f9 92bd
00000220: b8b7 403c 7570 613d 4086 573d 0d31 2c3d
00000230: 6eb9 0d3d b5b0 c1bd 06cc 7c3d d597 f13d
00000240: f21f 3cbe 6cdc 033c e47f 963d 5906 073e
00000250: cb57 47bd a4a3 da3d e90f 0f3e 93af 21be
00000260: d1d7 a13d efed 04bc 11be 5f3d bc9d 343d
00000270: 1c25 d4bd 49a9 43bd 8f50 adbd af02 a4bd
00000280: e678 493c e727 2e3d ea10 333c 2200 2e3a
00000290: 0dc8 973d e38f a03d be44 ba3c 7135 293e
000002a0: 92d3 633d 78e9 56be 817b 55bd 6468 243c
000002b0: f0f4 b83d 116c 02bd 863b e4bd c66f 8e3d
000002c0: 416e d83d 1857 e3bd af59 e7bd 7604 e33b
000002d0: deca a33c 7520 62be c247 11bd 54bc 95bd
000002e0: d2f2 c3bd 862a 303d dfdb 67be c23d ce3d
000002f0: 6a5d acbd 6475 a3bc 5d7d bebd 4a75 47be
00000300: 96b6 d0bc a46b c3bb 646a e23c 76eb a1be
00000310: dc24 c0bd 2265 8c3d 27f2 86bd c1ab 5d3d
00000320: 0f0d dfbc cd21 15be b6c5 f4bd e5d3 c63d
00000330: e8bb 9dbd 734b e03c f361 b7bd dc1e 933d
00000340: 323c cfbb 406b 933c 524f 2fbc 01a3 8b3d
00000350: 317c a93d 38cf 4c3d 4468 8e3d 758f 9f3d
00000360: 100b 1d3d d90f 3a3d fb83 fabd 0c02 7dba
00000370: 7960 e13c 113f c43c f259 2f3d 0e43 d4bd
00000380: 40b5 1ebe 3490 3b3d e541 8d3d f6ec 00bd
00000390: 27bc f63d 3f5a 8d3d 5aed 81bd 5e25 a43d
000003a0: 45af 98bd e743 653c 82a9 10be 28bc babd
000003b0: 44be 49be bf7f 9cbd 0058 583d 74a5 c5bd
000003c0: dbd1 cfbd e2ef d73c d970 793d 5a52 12bd
000003d0: 9176 7a3d 2c58 07be 9715 78bd 62ae 85bc
000003e0: f577 6cbd 5186 9c3d b7bd ccbd 1573 04bd
000003f0: 0548 0bbd a084 7b3d 76ce 903b f078 d73d

fc2.bias f4 [128]
-0.04370028 0.07014403 0.09471511 -0.053280644 -0.03118909 -0.03319603 -0.033803374 0.030917637
0.034685154 0.10448002 -0.5811233 0.016783407 0.044521116 -0.003220607 0.0021781696 0.032766692
-0.040802848 -0.43151286 -0.64466256 -0.21006925 -0.11132013 -0.7074554 -0.062007714 0.0091729
-0.040574595 -0.27942345 -0.15378271 -0.09809837 -0.09731558 0.015695693 0.03395645 -0.66164076
-0.38478336 0.017927524 -0.6461011 -0.67632574 -0.0028877456 0.018837133 0.020997614 -0.042986654
0.055792723 0.0011720544 -0.08825064 0.025479285 -0.2913825 0.0034521937 -0.12011215 -0.1706688
-0.16836944 -0.07292814 -0.024456967 -0.7348892 -0.040060375 0.028699862 -0.53664166 0.0036805607
-0.016591154 0.04754267 0.0431773 0.033359617 0.040906265 -0.00042906302 -0.37489614 -0.6448476
-0.02361927 -0.090867355 -0.72320867 -0.008301232 -0.7248394 -0.19321963 -0.02730129 0.043790814
-0.028465511 0.01571251 -0.10622513 -0.7353971 -0.026854364 -0.13521533 -0.2605156 0.03858459
-0.020990228 -0.0054171253 -0.111419015 -0.024931766 0.0058101867 -0.24163133 0.01578055 -0.45674998
-0.6406925 0.014200121 -0.03821761 -0.005837485 -0.08134787 -0.035433095 -0.020799413 -0.020064676
-0.13292514 -0.04941383 -0.3503979 0.0013717392 -0.08367311 -0.6322 -0.384978 -0.098379865
-0.065954916 -0.08155614 -0.11053196 -0.71321315 -0.1787167 -0.12898408 -0.53076404 -0.5874074
0.043641422 -0.17729567 0.041757602 -0.116983056 -0.09728487 0.022205632 -0.4338285 -0.18186921
-0.17853762 -0.40815496 -0.48206338 -0.061040383 -0.100444555 -0.18315601 -0.23449782 -0.5228572
00000000: 11ff 32bd aca7 8f3d fff9 c13d ce3c 5abd
00000010: 4380 ffbc 8ff8 07bd 6875 0abd fc46 fd3c
00000020: 0512 0e3d 9ff9 d53d 7fc4 14bf 5b7d 893c
00000030: c65b 363d d210 53bb 9fbf 0e3b 5e36 063d
00000040: e320 27bd 41ef dcbe 9b08 25bf 651c 57be
00000050: cffb e3bd cc1b 35bf cdfb 7dbd ee49 163c
00000060: 8c31 26bd 9710 8fbe 3779 1dbe cce7 c8bd
00000070: 644d c7bd 4194 803c eb15 0b3d 4a61 29bf
00000080: 5302 c5be bedc 923c e266 25bf af23 2dbf
00000090: 5540 3dbb 5550 9a3c 3003 ac3c c612 30bd
000000a0: e986 643d 9f9f 993a c0bc b4bd efb9 d03c
000000b0: 1630 95be 333e 623b 5cfd f5bd cdc3 2ebe
000000c0: 0a69 2cbe 595b 95bd fa59 c8bc b321 3cbf
000000d0: 5916 24bd f91b eb3c 5961 09bf 9035 713b
000000e0: 2cea 87bc 1abc 423d aeda 303d 18a4 083d
000000f0: 548d 273d ddf3 e0b9 63f2 bfbe bb14 25bf
00000100: 337d c1bc aa18 babd 3424 39bf e401 08bc
00000110: 138f 39bf 5edb 45be f4a6 dfbc ff5d 333d
00000120: 8130 e9bc 86b7 803c 908c d9bd fc42 3cbf
00000130: affd dbbc e375 0abe 4d62 85be e00a 1e3d
00000140: b3f3 abbc 2482 b1bb a72f e4bd b43d ccbc
00000150: 6163 be3b 346e 77be 3646 813c 22db e9be
00000160: 6c04 24bf a0a7 683c 128a 1cbd 6048 bfbb
00000170: b699 a6bd 4b22 11bd 8863 aabc ad5e a4bc
00000180: 871d 08be 2866 4abd 5b67 b3be eecb b33a
00000190: cf5c abbd dcd7 21bf d61b c5be 627b c9bd
000001a0: 5f13 87bd e806 a7bd 955e e2bd 2395 36bf
000001b0: 8301 37be 6714 04be 27e0 07bf 5560 16bf
000001c0: 59c1 323d ff8c 35be 050a 2b3d d094 efbd
000001d0: 4a3d c7bd 96e8 b53c c51e debe ec3b 3abe
000001e0: 91d2 36be b0f9 d0be 03d1 f6be 7b05 7abd
000001f0: e0b5 cdbd 408d 3bbe 3220 70be f8d9 05bf

fc3.weight f4 [10, 128]
-0.0024421674 0.046524145 0.08137491 -0.0855826 0.07786196 0.044365194 -0.054552604 -0.034891024
-0.06593692 -0.0017631396 0.052396823 -0.05485704 0.07251689 -0.059277255 0.06792848 0.028482134
-0.06206237 -0.027375463 -0.003446042 0.01339313 0.082230724 -0.08209351 -0.07899361 -0.029697534
-0.068068676 -0.078466155 0.070730925 0.072361246 0.058039445 -0.025830012 0.04021312 -0.030299969
0.05284592 0.019801032 -0.028544353 0.027448028 -0.08457823 -0.063596 0.01572011 -0.04314342
-0.05497289 -0.009246407 -0.008445997 0.08158869 -0.043831225 -0.02266668 0.048100512 0.07095139
-0.030273564 0.0726932 -0.010524574 -0.057507552 0.061418295 -0.078356385 -0.081400864 -0.08440836
0.03281501 0.019602625 -0.0071137766 0.040763356 -0.016843103 0.017166475 -0.06257824 0.024184631
0.08771563 -0.03096214 -0.07236065 -0.04567946 -0.032674544 0.078853235 -0.030981358 0.023163117
0.041861493 -0.088366285 0.004153835 0.00010690548 -0.07421746 -0.02539003 0.026520662 -0.0044128485
-0.022060534 0.0855098 0.014777949 0.01305683 0.016624149 -0.041831054 -0.08045853 0.07462142
-0.040135685 -0.028498275 0.0739286 -0.014592282 -0.06472071 -0.05110833 0.030344656 0.053938493
-0.07317639 0.071837924 0.020551646 -0.058115 -0.036471974 0.068106934 0.050153274 0.01220361
0.024030467 -0.001049467 -0.072975405 0.04371177 0.024990942 -0.024891064 -0.06506113 -0.044702612
-0.06624106 0.0067651276 0.0051579312 -0.0675043 0.046230942 -0.039417017 0.016645128 0.043098398
-0.018346207 0.047874816 -0.017339993 0.061569262 0.07927004 -0.041489936 0.05363609 0.08800215
0.06571395 -0.038999047 -0.06653787 -0.04261438 -0.01819727 -0.076196805 -0.047432296 0.020829383
-0.059315123 0.06863648 0.03062921 0.0596482 0.051769868 -0.031487532 -0.04430053 0.025360918
-0.0034614785 0.062615655 0.021537703 0.022712894 -0.085287094 0.040723264 -0.06702214 -0.017408598
-0.08617358 -0.0038840217 -0.06944089 -0.034368835 0.04473848 0.08380144 -0.086197354 0.0038020462
0.01441614 0.05160865 -0.06253258 0.0829206 -0.038349796 -0.049415577 0.07954992 -0.012088233
0.059188608 -0.0010082896 0.0812506 -0.026505163 -0.056341104 -0.057591844 0.037815616 0.02055978
-0.0052724336 -0.018938823 -0.06364632 0.062841244 0.0863381 -0.06999809 -0.0054887733 -0.0030035318
0.0628096 -0.07986175 0.08679175 0.01821063 0.029407868 -0.085825294 0.052426115 -0.022870786
-0.08475826 -0.025814343 -0.03771501 0.029840358 0.057815045 0.03693732 -0.0041804933 0.024649447
-0.08525718 -0.04475145 0.071918465 0.015901878 0.06429542 0.008109212 0.07342516 0.08405328
-0.027185412 0.061962977 -0.08634991 -0.085491896 0.0029954608 0.015643498 0.025872506 -0.051177748
0.05620595 0.0657422 0.073588766 -0.05610877 -0.05948388 0.010958728 0.020384291 -0.05095613
0.027640093 -0.030618938 -0.029866721 0.0649364 0.019270308 -0.06105857 0.012714682 0.016622158
0.06683359 -0.03697541 0.036495905 0.02009389 0.014638759 0.03822795 0.02439742 0.047916856
-0.057489008 0.012667245 -0.071584806 -0.027158564 -0.06803917 0.005118471 0.03399512 0.029297106
-0.06960836 -0.036489613 -0.07583231 0.06107056 0.08327749 0.08318456 0.073433705 0.02092709
00000000: c50c 20bb 1a90 3e3d e4a7 a63d ee45 afbd
00000010: 1776 9f3d 47b8 353d 8d72 5fbd e4e9 0ebd
00000020: f009 87bd 2619 e7ba 0d9e 563d c7b1 60bd
00000030: bc83 943d b5cc 72bd 161e 8b3d 5d53 e93c
00000040: 1d35 7ebd 8242 e0bc fed6 61bb dc6e 5b3c
00000050: 9568 a83d a420 a8bd 67c7 a1bd 3e48 f3bc
00000060: 9767 8bbd ddb2 a0bd 60db 903d 2232 943d
00000070: c5ba 6d3d 7699 d3bc 83b6 243d a437 f8bc
00000080: f774 583d c635 a23c d9d5 e9bc b0da e03c
00000090: 5a37 adbd 9f3e 82bd 76c7 803c 28b7 30bd
000000a0: 412b 61bd 3e7e 17bc 1461 0abc f917 a73d
000000b0: 5f88 33bd 79af b9bc 0b05 453d f64e 913d
000000c0: 4400 f8bc 2ce0 943d 436f 2cbc 0a8d 6bbd
000000d0: c091 7b3d 5079 a0bd 7fb5 a6bd 4ade acbd
000000e0: 0869 063d af95 a03c af1a e9bb 7af7 263d
000000f0: 8cfa 89bc b5a0 8c3c 0529 80bd d91e c63c
00000100: 41a4 b33d 50a4 fdbc d231 94bd 631a 3bbd
00000110: bed5 05bd ce7d a13d 9ecc fdbc 94c0 bd3c
00000120: f576 2b3d 62f9 b4bd e51c 883b 7132 e038
00000130: 53ff 97bd c1fe cfbc dc41 d93c a899 90bb
00000140: 4bb8 b4bc c31f af3d 361f 723c 50ec 553c
00000150: 5e2f 883c 0a57 2bbd 71c7 a4bd 1dd3 983d
00000160: 5165 24bd 3775 e9bc e167 973d 7714 6fbc
00000170: 4b8c 84bd f856 51bd 5b95 f83c 9cee 5c3d
00000180: 81dd 95bd c31f 933d ed5b a83c ff09 6ebd
00000190: a363 15bd a67b 8b3d 856d 4d3d a6f1 473c
000001a0: 8bdb c43c 458e 89ba 2174 95bd 1d0b 333d
000001b0: ceb9 cc3c 58e8 cbbc c53e 85bd 161a 37bd
000001c0: 65a9 87bd 01ae dd3b dd03 a93b b23f 8abd
000001d0: a85c 3d3d bd73 21bd 5d5b 883c f287 303d
000001e0: c94a 96bc 6218 443d 9a0c 8ebc 0d30 7c3d
000001f0: 5558 a23d 5af1 29bd 84b1 5b3d 793a b43d
00000200: 0995 863d 77bd 1fbd 0245 88bd 6b8c 2ebd
00000210: 7112 95bc 120d 9cbd 5e48 42bd 62a2 aa3c
00000220: 6af4 72bd 4891 8c3d 1cea fa3c ac51 743d
00000230: a40c 543d 12f9 00bd 7974 35bd b3c1 cf3c
00000240: f9d9 62bb a33c 803d d66f b03c 6410 ba3c
00000250: 00ab aebd 70cd 263d e742 89bd 7a9c 8ebc
00000260: c67b b0bd 128b 7ebb 0637 8ebd 56c6 0cbd
00000270: b23f 373d 17a0 ab3d 3d88 b0bd c02b 793b
00000280: ac31 6c3c 9763 533d 1511 80bd 47d2 a93d
00000290: ad14 1dbd fd67 4abd 12eb a23d b90d 46bc
000002a0: c16f 723d 9628 84ba b766 a63d 5b21 d9bc
000002b0: eec5 66bd 6de5 6bbd 8ce4 1a3d fc6c a83c
000002c0: 61c4 acbb 9725 9bbc 0059 82bd e9b2 803d
000002d0: 08d2 b03d 295b 8fbd 2bdb b3bb e7d6 44bb
000002e0: 52a2 803d 8f8e a3bd dfbf b13d 762e 953c
000002f0: c5e8 f03c 2cc5 afbd c4bc 563d 845b bbbc
00000300: bd95 adbd 9a78 d3bc 0e7b 1abd c473 f43c
00000310: 78cf 6c3d 964b 173d 85fc 88bb a3ed c93c
00000320: 519b aebd 4c4d 37bd fd49 933d a844 823c
00000330: 51ad 833d 80dc 043c ee5f 963d 2024 ac3d
00000340: f1b3 debc e4cc 7d3d 39d8 b0bd 6016 afbd
00000350: 7e4f 443b cb26 803c 94f2 d33c c29f 51bd
00000360: 3638 663d d9a3 863d b5b5 963d 4fd2 65bd
00000370: 5ea5 73bd 3d8c 333c f5fc a63c 60b7 50bd
00000380: 7a6d e23c 91d4 fabc 0eab f4bc 60fd 843d
00000390: c4dc 9d3c 8d18 7abd 3e51 503c 312b 883c
000003a0: 0de0 883d 8773 17bd bb7c 153d f19b a43c
000003b0: 68d7 6f3c e994 1c3d 19dd c73c 7744 443d
000003c0: 9879 6bbd 478a 4f3c 0e9b 92bd a37b debc
000003d0: 1f58 8bbd d9b8 a73b 783e 0b3d 7c00 f03c
000003e0: d48e 8ebd 2276 15bd f84d 9bbd 2025 7a3d
000003f0: 648d aa3d ab5c aa3d 6964 963d 4a6f ab3c

fc3.bias f4 [10]
-0.029815407 0.014667409 0.07924409 -0.056479294 0.073752545 -0.05312036 -0.038561374 0.025694015
0.07660288 -0.0034010399
00000000: 713f f4bc 924f 703c ba4a a23d d556 67bd
00000010: 930b 973d bc94 59bd 88f2 1dbd 417c d23c
00000020: f9e1 9c3d fbe3 5ebb
