02_code_organisation/simple_mnist/models/checkpoint.pth (torch, 291017 bytes, 10 tensors)

conv1.weight f4 [16, 1, 5, 5]
-0.001976638 -0.044874806 -0.0440139 -0.057125952 -0.014925759 0.029719383 0.008213868 -0.32891732
0.14044793 -0.004874655 -0.08556821 -0.06163296 0.21738376 0.38806129 0.35941046 -0.08833313
0.28850186 0.330672 0.073367834 -0.09403917 0.14606489 -0.046867628 -0.35635298 -0.459753
-0.17227682 0.038746838 0.13967572 0.09361905 -0.052369095 -0.23679085 -0.1254029 0.17218141
-0.033509795 0.05702987 -0.25084174 -0.13203837 0.22132711 -0.1357293 -0.2613188 -0.23460078
0.057305705 0.18833676 0.04596337 -0.05138124 -0.2892746 0.07575339 0.04261693 -0.072666235
-0.1836537 0.11242333 -0.05230858 -0.0034720653 -0.30990726 -0.26639944 -0.21807034 -0.06876892
-0.24525386 -0.017388219 -0.19189481 -0.02861571 -0.1736528 -0.17194599 0.063241206 0.16415785
0.2692951 -0.07972007 0.078667015 -0.064300485 0.21193054 0.07839106 -0.13233222 -0.06117182
0.03225855 0.11884759 0.34353304 -0.20584393 -0.31849873 -0.033396006 -0.1698271 -0.05009712
-0.027648354 -0.14365405 -0.34302887 -0.3144518 -0.22432074 -0.137452 0.06292639 -0.11632975
-0.18456815 0.045437522 0.2996223 0.3026568 0.14671196 0.2661042 0.11804804 0.04994511
0.082503796 0.23147753 0.33323875 0.26941723 -0.07157526 0.13979192 0.020407876 -0.3056081
-0.023300378 0.19651595 0.04294344 -0.33063734 -0.024941808 -0.30281037 0.027501175 -0.007673037
0.15093793 0.28906873 -0.13314909 0.12618332 0.31253973 0.2091441 0.25235704 0.29561538
-0.13177761 -0.093583375 -0.0693232 -0.08115953 0.21623737 -0.064932354 0.098472744 -0.1563983
-0.19333744 -0.1291642 -0.2548958 -0.199227 -0.21476425 0.026695076 -0.046786204 0.018094908
-0.17541 -0.26462203 -0.23325816 0.1440314 -0.20043448 -0.21958847 -0.23441018 0.101370245
0.25264236 -0.13744958 -0.10691922 0.11679249 0.08221271 0.40627864 0.18378755 -0.04314138
0.30645594 0.32297373 -0.034202375 -0.047941867 -0.043246277 -0.104686655 0.014460881 0.31069192
-0.12982008 -0.0025511673 -0.2062023 0.20264722 0.15669304 -0.35534427 -0.30996224 0.1236259
0.3587099 -0.0034520696 -0.326414 -0.25264743 0.1188116 0.3403328 -0.046977196 -0.08670065
-0.27329162 0.1056803 0.22107598 0.21596 -0.021273427 0.3535746 0.5247964 0.3348243
0.01718475 0.06631565 0.29476842 0.23999229 -0.30056304 -0.3654695 -0.053198878 0.24753949
0.108113244 -0.41835046 -0.40127048 -0.22672522 0.16206476 -0.20782837 -0.20540032 -0.18039255
-0.000731856 -0.092209294 -0.13718772 -0.01956738 0.0830408 -0.031392183 -0.035475135 -0.104103476
-0.03232011 0.03363314 0.20119289 0.003898732 -0.3416887 -0.35581127 -0.12311344 0.2847536
0.21632528 -0.2160856 -0.09581826 -0.103640184 0.022458913 0.39029366 0.38160762 -0.024381366
0.14368151 0.18513805 0.108517066 0.2644412 0.38364246 0.22507222 0.10580144 0.061906673
0.19821998 0.11088291 0.28893176 -0.24369471 -0.18455358 -0.062054694 -0.1688957 0.013310942
-0.11568518 -0.2886687 -0.33863094 -0.10742196 -0.049529973 -0.1778142 -0.06410432 -0.24375464
-0.20785719 -0.22495688 0.08716973 0.1486742 -0.11638515 0.0024942341 -0.06212973 0.07547302
00000000: 7c8a 01bb a5ce 37bd eb47 34bd e7fc 69bd
00000010: 2c8b 74bc 1076 f33c 7693 063c da67 a8be
00000020: 95d1 0f3e 92bb 9fbb 633e afbd d872 7cbd
00000030: d999 5e3e f8af c63e a604 b83e 00e8 b4bd
00000040: 84b6 933e d74d a93e e041 963d 9c97 c0bd
00000050: 0992 153e 45f8 3fbd e673 b6be bf64 ebbe
00000060: 5669 30be 01b5 1e3d 2707 0f3e 58bb bf3d
00000070: fa80 56bd 4d79 72be 9e69 00be 5350 303e
00000080: 9141 09bd 2798 693d 546e 80be 1135 07be
00000090: 93a3 623e 9ffc 0abe 94cb 85be 303b 70be
000000a0: 63b9 6a3d 5adb 403e 1644 3c3d 2375 52bd
000000b0: cd1b 94be 9824 9b3d 178f 2e3d 09d2 94bd
000000c0: b70f 3cbe 343e e63d 8641 56bd 978b 63bb
000000d0: 2aac 9ebe 8265 88be d54d 5fbe b8d6 8cbd
000000e0: d423 7bbe bd71 8ebc 1380 44be 7e6b eabc
000000f0: 0ad2 31be 9c12 30be 9b84 813d ff18 283e
00000100: 0ce1 893e 4744 a3bd 2c1c a13d f9af 83bd
00000110: 5204 593e 7e8b a03d 1982 07be 4d8f 7abd
00000120: 8b21 043d 5e66 f33d 90e3 af3e c0c8 52be
00000130: 4412 a3be 40ca 08bd 28e7 2dbe a332 4dbd
00000140: cd7e e2bc 0c1a 13be 7ba1 afbe d4ff a0be
00000150: 56b4 65be 38c0 0cbe 8ddf 803d 4b3e eebd
00000160: 6fff 3cbe b21c 3a3d 1868 993e d5f5 9a3e
00000170: a93b 163e cf3e 883e 2cc3 f13d 3e93 4c3d
00000180: c0f7 a83d 7208 6d3e 459e aa3e 0ef1 893e
00000190: 0d96 92bd 9d25 0f3e 6b2e a73c aa78 9cbe
000001a0: 6fe0 bebc 7a3b 493e 76e5 2f3d 4c49 a9be
000001b0: c352 ccbc f609 9bbe 254a e13c 196e fbbb
000001c0: 798f 1a3e d100 943e 3c58 08be 3336 013e
000001d0: 3505 a03e df29 563e f134 813e e65a 973e
000001e0: b6f0 06be a4a8 bfbd 52f9 8dbd f836 a6bd
000001f0: 546d 5d3e 41fb 84bd 14ac c93d e026 20be
00000200: 40fa 45be 9f43 04be b481 82be 2a02 4cbe
00000210: 29eb 5bbe a2af da3c e4a2 3fbd c63b 943c
00000220: ae9e 33be 8a7c 87be 3adb 6ebe f87c 133e
00000230: b23e 4dbe cddb 60be 3909 70be 349b cf3d
00000240: 575a 813e 95bf 0cbe 77f8 dabd e730 ef3d
00000250: 235f a83d c103 d03e ce32 3c3e 04b5 30bd
00000260: cbe7 9c3e d05c a53e ca17 0cbd b15e 44bd
00000270: 0223 31bd f565 d6bd 55ed 6c3c 0313 9f3e
00000280: 8eef 04be 7c31 27bb b226 53be c182 4f3e
00000290: 2474 203e afef b5be 5fb3 9ebe 932f fd3d
000002a0: d3a8 b73e 1e3c 62bb bc1f a7be 015b 81be
000002b0: 7f53 f33d 1a40 ae3e 296b 40bd 1c90 b1bd
000002c0: e1ec 8bbe ea6e d83d be61 623e 9e24 5d3e
000002d0: 9c45 aebc bb07 b53e 0f59 063f 176e ab3e
000002e0: 08c7 8c3c 80d0 873d e3eb 963e 8ac0 753e
000002f0: 66e3 99be d11e bbbe 11e7 59bd fe7a 7d3e
00000300: 7a6a dd3d 0832 d6be 5373 cdbe a82a 68be
00000310: 4ef4 253e f6d0 54be 7654 52be d3b8 38be
00000320: 06da 3fba 3ad8 bcbd f07a 0cbe c54b a0bc
00000330: 4c11 aa3d 1795 00bd 604e 11bd 3434 d5bd
00000340: 1762 04bd e7c2 093d 8205 4e3e de81 7f3b
00000350: d2f1 aebe e52c b6be e622 fcbd 39cb 913e
00000360: 6084 5d3e 8b45 5dbe 5d3c c4bd 4e41 d4bd
00000370: c1fb b73c 92d4 c73e 1362 c33e 6ebb c7bc
00000380: 3f21 133e d494 3d3e 323e de3d d664 873e
00000390: c96c c43e 5579 663e 6dae d83d da91 7d3d
000003a0: 2efa 4a3e 9416 e33d ddee 933e 1b8b 79be
000003b0: 9dfb 3cbe 102d 7ebd fff2 2cbe 2316 5a3c
000003c0: 5aec ecbd 62cc 93be 0961 adbe 0b00 dcbd
000003d0: f1df 4abd ed14 36be 2049 83bd d19a 79be
000003e0: 84d8 54be 195b 66be 0b86 b23d 0d3e 183e
000003f0: 565b eebd 4e76 233b be7b 7ebd 9991 9a3d

conv1.bias f4 [16]
0.047271695 0.06979212 -0.09816514 0.008940948 0.10442791 -0.030745309 0.24428329 0.066303425
0.167746 -0.07651515 0.070342615 -0.018884182 0.23566933 0.22881286 0.26207325 -0.13470314
00000000: f79f 413d 2cef 8e3d ce0a c9bd 0e7d 123c
00000010: 4dde d53d 96dd fbbc 6625 7a3e 17ca 873d
00000020: 9cc5 2b3e fab3 9cbd ca0f 903d 00b3 9abc
00000030: 4d53 713e eb4d 6a3e 772e 863e 9fef 09be

conv2.weight f4 [16, 16, 3, 3]
-1.2209341e-05 0.16256142 0.1795568 0.19153133 0.10562314 0.1846886 0.104603775 0.0077799447
-0.0142672425 0.063606985 -0.066804655 -0.058345623 -0.06421641 -0.0019307507 0.018491942 0.067939684
0.09797861 0.040943787 -0.029137984 0.036228616 -0.024369223 -0.017681953 0.10132053 -0.07017268
0.007987946 -0.0018300442 0.000578912 -0.074980706 0.085598655 0.08790917 0.1315658 0.06991575
-0.10254459 -0.073575504 -0.13719216 -0.040456653 -0.0023139946 -0.03704857 0.075110674 -0.048742477
-0.03227532 0.03676938 0.09260816 -0.026623992 -0.09850672 -0.013997159 0.0012797407 0.012858268
0.037507474 -0.08030656 0.07813719 -0.15428716 -0.008713218 -0.08721826 0.036704414 0.015999671
0.08196343 0.014359125 -0.04445655 -0.07943547 -0.041747775 -0.054403525 -0.035091393 -0.020819146
-0.10552527 0.059850566 0.11250732 0.14019626 0.21478117 0.20378 0.23493133 0.21524687
0.06289788 -0.01979291 -0.06980079 -0.041705202 -0.06353335 -0.084562615 0.0061135716 -0.059665177
0.0048217596 -0.02310218 -0.04028562 -0.1567658 -0.0902377 -0.19525567 0.015579371 0.0729531
0.028798163 0.06733312 -0.22717601 -0.23106669 -0.10990835 -0.08864155 -0.10749143 -0.06655632
0.03783626 0.1275029 -0.05986925 -0.014908486 -0.044856906 0.065391265 0.11916612 -0.014366152
-0.05026986 0.08863536 0.017610854 0.030372286 0.08445495 0.09172867 -0.022959208 -0.012143486
-0.16702771 -0.10034449 -0.017753176 -0.14975333 -0.13308579 0.09242583 0.15590757 0.110634014
0.1184495 0.042399578 -0.04089311 0.15815185 -0.026372211 -0.04270556 0.093680196 0.014611709
0.17807567 0.18553028 0.05261616 0.23550546 0.20469546 0.061547343 0.11564891 -0.015254588
0.0375259 0.079277284 -0.06390994 -0.00809024 -0.04582785 -0.07158675 -0.07287945 0.017386481
0.017742163 -0.039248656 0.161204 -0.057102446 0.18905886 0.15224887 0.17111187 0.076426946
0.0099556465 0.099257216 0.0030323572 -0.061604526 0.045091946 0.034250654 0.09029368 -0.12613694
0.021199072 0.02398728 0.06183803 0.069333136 0.10428455 0.03625529 0.13588671 0.042169865
0.09896307 0.016430253 -0.05508613 0.016454767 0.11174847 -0.05104191 0.04031178 0.0804164
-0.19446768 0.039087553 -0.03141873 -0.22547284 -0.18921141 -0.2699643 -0.09814807 -0.15613969
-0.12779424 -0.11143471 -0.11233708 -0.14500216 0.0055905106 0.1068152 0.16310912 0.005543011
0.18527038 0.16712701 -0.092332 -0.019338572 -0.09261522 -0.119087756 0.040395215 0.047697384
0.2148189 0.19417751 0.12706798 -0.14771152 0.06967879 -0.03440506 -0.122746944 -0.060572594
0.042775963 0.12800166 -0.08827715 0.2301868 0.16075534 0.17805916 0.2239224 0.071019255
0.040629517 -0.0831581 -0.18759649 0.08371916 -0.12472021 -0.16007069 -0.016126912 -0.0291327
0.011578047 0.10253192 -0.09974623 -0.17026708 -0.11701058 -0.16877544 -0.1878979 -0.20264073
-0.25084102 -0.1786755 -0.307663 -0.29696703 0.046228234 -0.35319206 -0.16268398 0.061124906
-0.019647907 0.15133116 0.029233357 -0.16298041 -0.19061148 -0.032031838 -0.124422275 -0.15990542
-0.105311684 -0.06726232 -0.07874288 -0.054799974 0.02043134 0.1958447 0.079515204 0.20700543
00000000: b8d6 4cb7 8076 263e bddd 373e ca20 443e
00000010: f250 d83d 021f 3d3e 813a d63d e8ee fe3b
00000020: 27c1 69bc 6144 823d e1d0 88bd d2fb 6ebd
00000030: e583 83bd 3e11 fdba 6a7c 973c f623 8b3d
00000040: 02a9 c83d acb4 273d c8b2 eebc 7564 143d
00000050: f7a1 c7bc bed9 90bc 2381 cf3d b2b6 8fbd
00000060: e0df 023c 18de efba 20c2 173a 7c8f 99bd
00000070: 594e af3d b909 b43d 2fb9 063e fd2f 8f3d
00000080: e602 d2bd c1ae 96bd 1a7c 0cbe e0b5 25bd
00000090: 63a6 17bb 3ec0 17bd a0d3 993d 31a6 47bd
000000a0: 2033 04bd 7d9b 163d 59a9 bd3d 8f1a dabc
000000b0: e4bd c9bd 5754 65bc f9bc a73a 7cab 523c
000000c0: 70a1 193d c477 a4bd 6406 a03d 74fd 1dbe
000000d0: e3c1 0ebc 7d9f b2bd 5e57 163d be11 833c
000000e0: 71dc a73d 8942 6b3c 1218 36bd 10af a2bd
000000f0: b7ff 2abd 3bd6 5ebd febb 0fbd ea8c aabc
00000100: a21d d8bd de25 753d 3d6a e63d 9c8f 0f3e
00000110: 98ef 5b3e b4ab 503e d791 703e ad69 5c3e
00000120: 9bd0 803d be24 a2bc b7f3 8ebd 13d3 2abd
00000130: c61d 82bd 2a2f adbd 5b54 c83b 7963 74bd
00000140: daff 9d3b c840 bdbc 8902 25bd 3787 20be
00000150: 8bce b8bd 1af1 47be 9e40 7f3c 6f68 953d
00000160: 20ea eb3c f2e5 893d d4a0 68be bf9c 6cbe
00000170: a117 e1bd b389 b5bd 7824 dcbd ae4e 88bd
00000180: 32fa 1a3d 1f90 023e 7539 75bd b942 74bc
00000190: e0bb 37bd dbeb 853d 5e0d f43d 0260 6bbc
000001a0: c5e7 4dbd 7586 b53d a344 903c 4dcf f83c
000001b0: b8f6 ac3d 3edc bb3d f314 bcbc 79f5 46bc
000001c0: 5009 2bbe 6981 cdbd 1c6f 91bc f058 19be
000001d0: a447 08be c149 bd3d 3ca6 1f3e 1694 e23d
000001e0: a795 f23d 2eab 2d3d 897f 27bd 8ff2 213e
000001f0: 890a d8bc 06ec 2ebd 67db bf3d f365 6f3c
00000200: 7859 363e a6fb 3d3e 0b84 573d 5828 713e
00000210: b09b 513e 1119 7c3d 56d9 ec3d 61ee 79bc
00000220: c2b4 193d 215c a23d 37e3 82bd ed8c 04bc
00000230: fcb5 3bbd 139c 92bd d241 95bd 186e 8e3c
00000240: 0358 913c 33c3 20bd a912 253e 41e4 69bd
00000250: a598 413e 21e7 1b3e f337 2f3e bb85 9c3d
00000260: 021d 233c 5e47 cb3d 83ba 463b 0755 7cbd
00000270: 55b2 383d 6a4a 0c3d e5eb b83d 0b2a 01be
00000280: ada9 ad3c f980 c43c e049 7d3d 88fe 8d3d
00000290: 2393 d53d 6d80 143d e325 0b3e 4fba 2c3d
000002a0: 26ad ca3d bd98 863c fea1 61bd 26cc 863c
000002b0: 62dc e43d 5211 51bd f71d 253d 5bb1 a43d
000002c0: 8922 47be 451a 203d edb0 00bd 5ae2 66be
000002d0: a3c0 41be c338 8abe db01 c9bd 15e3 1fbe
000002e0: 7edc 02be e237 e4bd fc10 e6bd 727b 14be
000002f0: 9a30 b73b edc1 da3d 1406 273e 25a2 b53b
00000300: 85b7 3d3e 5823 2b3e 8f18 bdbd ed6b 9ebc
00000310: 0cad bdbd 48e4 f3bd 7475 253d 555e 433d
00000320: 7cf9 5b3e 78d6 463e 1c1e 023e b041 17be
00000330: c1b3 8e3d 52ec 0cbd c062 fbbd f81a 78bd
00000340: d935 2f3d de12 033e a7ca b4bd 17b6 6b3e
00000350: 0c9d 243e 2455 363e ea4b 653e 8b72 913d
00000360: 236b 263d cb4e aabd 4b19 40be f374 ab3d
00000370: 4f6d ffbd 92e9 23be 961c 84bc b3a7 eebc
00000380: d9b1 3d3c 41fc d13d c047 ccbd 7e5a 2ebe
00000390: 3ea3 efbd 78d3 2cbe 4f68 40be 0d81 4fbe
000003a0: 3c6e 80be b6f6 36be 0186 9dbe 100c 98be
000003b0: d159 3d3d 97d5 b4be a196 26be 1c5e 7a3d
000003c0: a6f4 a0bc 8ef6 1a3e cb7a ef3c 56e4 26be
000003d0: a82f 43be d133 03bd 1bd1 febd 3fbe 23be
000003e0: a7ad d7bd d4c0 89bd f243 a1bd f075 60bd
000003f0: a05f a73c 838b 483e ded8 a23d 3bf9 533e

conv2.bias f4 [16]
0.041123386 -0.03729812 -0.029388454 -0.04110339 -0.02828906 -0.028997766 0.09849768 0.109168984
-0.0048637684 0.032927867 0.060933582 -0.040269256 -0.026471136 0.10259133 0.076299556 -0.005916867
00000000: ff70 283d eac5 18bd 0ec0 f0bc 075c 28bd
00000010: 75be e7bc b98c edbc 27b9 c93d fd93 df3d
00000020: 3f60 9fbb 5fdf 063d 7e95 793d 60f1 24bd
00000030: ffd9 d8bc 671b d23d f142 9c3d 47e2 c1bb

fc1.weight f4 [128, 400]
0.011404156 0.06250316 0.03802386 0.10431604 0.09984344 -0.04003059 -0.04793065 -0.035444535
0.029336592 0.02372087 -0.013679472 0.025999773 0.0047809086 -0.030176964 -0.038125098 0.034586724
-0.016870758 -0.075258516 -0.026065981 -0.038033802 -0.059424814 -0.040696878 -0.021126917 0.013668245
0.03153469 0.024312777 0.01319299 0.07660774 0.05972416 0.07843804 -0.017522145 -0.0035129734
-0.0015325516 0.0033317057 0.04140773 -0.03977648 -0.036768194 0.026108805 -0.01124827 -0.038071387
0.035175826 0.0015794608 -0.004416172 -0.053626057 -0.019139014 -0.056933008 -0.002902465 0.012048217
0.07413318 -0.0037660494 0.00766179 0.01563228 0.0017975942 -0.10926034 -0.10064777 0.13153513
0.09141899 -0.024811877 -0.10687134 -0.10988151 -0.025182616 0.08446057 0.11525615 -0.02464729
0.037620332 -0.018070746 -0.007946581 0.040955786 0.025917334 -0.027405355 -0.021957131 -9.152479e-05
0.036588572 -0.0417496 -0.052308876 0.011322236 0.00956892 0.06691734 0.084821634 0.010311256
-0.027494298 -0.001076354 -0.010383435 -0.009806399 -0.0069833244 0.03004442 -0.019735998 -0.016805392
-0.0729701 -0.05407573 0.030063977 -0.056768697 0.0015055608 -0.020349909 -0.043377046 -0.028098602
0.009326529 0.011278492 0.091467 0.017718174 0.035564702 0.020372557 0.025991924 -0.01991218
0.05561321 -0.044600774 0.021628883 -0.029236559 -0.02300214 0.095547654 0.0070228567 0.013113072
-0.03984132 0.07923975 -0.009305604 0.06248188 -0.04179721 -0.06306164 0.032770097 0.030891433
-0.009882225 0.07493 -0.034222312 -0.007694632 -0.041042462 -0.031063527 0.027011687 -0.06010928
-0.0664115 -0.08190113 0.025384152 -0.008165218 -0.02539116 0.023410607 -0.008372213 0.11465332
-0.0076601584 -0.028113328 0.08067645 0.0642702 0.0017444442 -0.09326544 -0.06315338 0.023600882
0.053597234 0.031619884 0.056242358 0.012744975 0.07816275 -0.05726613 -0.023638362 -0.0123944245
0.0032474322 0.05715029 0.010865039 -0.06300598 -0.07652319 0.038493775 0.13385978 0.112400636
-0.013761387 -0.0022083125 -0.09942417 0.00048626322 -0.046065323 0.05960184 -0.005169433 -0.024854619
0.056650247 0.021687282 -0.06252518 0.01672391 0.025498666 0.03158423 -0.04874871 0.081228554
0.04303238 0.024268257 -0.019135434 -0.087736174 0.061561607 0.029080272 0.038603738 -0.06532367
-0.06492414 -0.047297865 -0.012288576 0.035337977 -0.02325512 -0.0418082 -0.039710745 -0.014544702
0.03725537 0.00795161 0.059792697 -0.04691822 0.058731228 -0.003654028 -0.0046694307 0.05297714
0.054412626 -0.021511061 0.011427146 -0.010095633 -0.047678616 -0.05357716 -0.052798234 0.03813779
-0.0021884996 -0.0046085077 -0.04005084 0.045212418 -0.026810387 -0.0027522913 -0.006412022 0.03685882
-0.021557657 -0.041703187 -0.02084661 -0.014329541 -0.013467311 -0.0566824 -0.093841486 -0.043820202
0.038481895 0.030032152 -0.053545956 -0.042727344 0.0066380315 -0.007241008 0.009348965 -0.01160425
-0.061290815 0.01806712 0.032289796 0.085905045 0.011075371 0.034967747 0.0432745 0.08692752
-0.026899802 0.022091586 0.05318085 0.09749185 0.019341683 0.028013308 0.008728989 0.027926866
0.008964677 -0.062011547 -0.047545098 -0.011661632 -0.041709226 0.061753906 0.057682432 0.005316792
00000000: 7fd8 3a3c a801 803d e8be 1b3d a6a3 d53d
00000010: b87a cc3d 1ef7 23bd ee52 44bd 4a2e 11bd
00000020: 4b53 f03c 4552 c23c dd1f 60bc 7afd d43c
00000030: 2ba9 9c3b ae35 f7bc 1029 1cbd cfaa 0d3d
00000040: 8b34 8abc 2321 9abd 5388 d5bc 55c9 1bbd
00000050: 6f67 73bd c5b1 26bd 5b12 adbc c6f0 5f3c
00000060: 852a 013d 972b c73c 6927 583c 85e4 9c3d
00000070: 52a1 743d 20a4 a03d 9a8a 8fbc ea39 66bb
00000080: e6df c8ba bf58 5a3b 279b 293d aaec 22bd
00000090: 3f9a 16bd 22e2 d53c aa4a 38bc bef0 1bbd
000000a0: 8714 103d e905 cf3a 89b5 90bb ffa6 5bbd
000000b0: 6cc9 9cbc 9632 69bd 4837 3ebb e265 453c
000000c0: 23d3 973d d3cf 76bb c10f fb3b 440f 803c
000000d0: 419d eb3a e3c3 dfbd 6b20 cebd 25b1 063e
000000e0: e139 bb3d 4742 cbbc 5cdf dabd 8f09 e1bd
000000f0: c64b cebc aaf9 ac3d 6b0b ec3d 1de9 c9bc
00000100: c717 1a3d 1a09 94bc 6032 02bc 41c1 273d
00000110: 9750 d43c 3281 e0bc 71df b3bc fff0 bfb8
00000120: e6dd 153d a101 2bbd d541 56bd e680 393c
00000130: f6c6 1c3c f50b 893d f7b6 ad3d 8bf0 283c
00000140: b93b e1bc 7214 8dba 481f 2abc 05ab 20bc
00000150: 5fd4 e4bb b71f f63c 63ad a1bc 76ab 89bc
00000160: 5971 95bd 837e 5dbd bb48 f63c 4b86 68bd
00000170: 3d56 c53a dab4 a6bc 21ac 31bd 0a2f e6bc
00000180: 4cce 183c 6dc9 383c 0d53 bb3d b425 913c
00000190: 4bac 113d 59e4 a63c 04ed d43c de1e a3bc
000001a0: adca 633d 4daf 36bd 0e2f b13c 8281 efbc
000001b0: fc6e bcbc 7dae c33d fe1f e63b 36d8 563c
000001c0: a730 23bd 7348 a23d 8876 18bc 00ed 7f3d
000001d0: 8d33 2bbd 7626 81bd f039 063d 0810 fd3c
000001e0: 0ee9 21bc e674 993d b22c 0cbd 4023 fcbb
000001f0: 241c 28bd f078 febc 9d47 dd3c 2635 76bd
00000200: c102 88bd c8bb a7bd 6df2 cf3c 68c7 05bc
00000210: 1f01 d0bc 9ac7 bf3c 9b2b 09bc 5ccf ea3d
00000220: 1102 fbbb ec4d e6bc b239 a53d 18a0 833d
00000230: d6a5 e43a f301 bfbd 8f56 81bd a356 c13c
00000240: c688 5b3d da83 013d 635e 663d 4dd0 503c
00000250: cb13 a03d e48f 6abd 3da5 c1bc fc11 4bbc
00000260: dfd2 543b 6c16 6a3d 4703 323c 4709 81bd
00000270: 31b8 9cbd a6ab 1d3d 8a12 093e 4e32 e63d
00000280: 7177 61bc 56b9 10bb e69e cbbd 25f1 fe39
00000290: feae 3cbd 0f21 743d 5964 a9bb ea9b cbbc
000002a0: 170a 683d 87a9 b13c 340d 80bd 9500 893c
000002b0: 94e2 d03c 775e 013d baac 47bd 285b a63d
000002c0: b942 303d 39ce c63c eac1 9cbc 06af b3bd
000002d0: 0628 7c3d c039 ee3c f41e 1e3d 6bc8 85bd
000002e0: f3f6 84bd 68bb 41bd 0656 49bc 8ebe 103d
000002f0: 8581 bebc 133f 2bbd bca7 22bd e74c 6ebc
00000300: 1699 183d 7847 023c 30e9 743d 522d 40bd
00000310: 2890 703d 6b78 6fbb 0602 99bb 8ffe 583d
00000320: c6df 5e3d f737 b0bc ed38 3b3c 2768 25bc
00000330: a74a 43bd b973 5bbd f642 58bd 5f36 1c3d
00000340: ee6c 0fbb f702 97bb 590c 24bd a830 393d
00000350: 75a1 dbbc c95f 34bb f01b d2bb 46f9 163d
00000360: af99 b0bc f6d0 2abd 83c6 aabc 73c6 6abc
00000370: ffa5 5cbc ce2b 68bd f72f c0bd d07c 33bd
00000380: 319f 1d3d fd05 f63c 0153 5bbd de02 2fbd
00000390: d883 d93b fa45 edbb 672c 193c c11f 3ebc
000003a0: 140c 7bbd 7f01 943c 4e42 043d fcee af3d
000003b0: 7975 353c 573a 0f3d 9a40 313d 0e07 b23d
000003c0: f95c dcbc 6af9 b43c 2ad4 593d cfa9 c73d
000003d0: 7372 9e3c 2a7c e53c 0904 0f3c e2c6 e43c
000003e0: 95e0 123c d2ff 7dbd a6be 42bd 6e10 3fbc
000003f0: 4bd7 2abd aaf1 7c3d 6a44 6c3d 7c38 ae3b

fc1.bias f4 [128]
0.043637194 -0.0062076473 0.051824603 -0.042694755 -0.05453809 -0.004059735 -0.049935896 0.055272844
-0.0021141456 -0.05970283 -0.049610846 -0.008656702 -0.02184563 0.05476683 -0.04060004 -0.03899724
0.004771757 -0.0070871743 0.057757523 0.05664715 0.04078706 -0.013613799 0.02280329 0.06842765
-0.03891739 -0.051559296 0.004112161 -0.060601708 0.00899229 0.016797354 -0.030745175 0.006097123
0.0032667653 0.04248134 -0.0030567881 0.018515624 -0.0027100334 0.07056103 -0.032846157 -0.022320956
0.039272554 0.018223751 0.055011 -0.032342497 0.031168275 -0.024425425 -0.03614848 0.032680687
-0.04189741 0.029756462 0.0009072346 0.034766003 0.0023207453 0.030102478 0.015893582 -0.037968736
0.0020289049 -2.5297599e-05 0.033591457 -0.027748894 -0.04247034 0.004683807 -0.022005964 0.02668432
-0.02532277 -0.005467393 -0.0009421597 0.017244082 0.030743778 0.049709897 0.03564842 -0.032939766
0.014667144 0.03303035 0.03704056 0.0073879864 0.011592011 -0.025123658 0.04817146 0.013099591
0.04620633 0.010144061 -0.030504348 0.023588011 0.024330672 -0.032647368 -0.03175984 0.025734175
0.011605903 0.0378831 -0.023137404 0.030210251 -0.013926127 0.026232222 -0.0014813613 0.032932352
0.009136632 0.020959454 0.022372086 0.04064899 -0.027482815 0.026700865 -0.05049881 -0.0008941284
0.02629234 -0.029414555 -0.02982557 0.0503989 -0.0011283783 0.005258959 0.035447184 -0.025577858
-0.054636236 -0.033665977 0.014222736 0.034217823 0.0779644 -0.033375096 -0.039227463 0.03451446
-0.02825744 -0.037804265 0.043012973 0.026105354 0.02212323 -0.017286804 -0.020971425 -0.002449298
00000000: eabc 323d 8569 cbbb 0946 543d b2e0 2ebd
00000010: 5563 5fbd 8707 85bb 9589 4cbd c765 623d
00000020: 7a8d 0abb f48a 74bd be34 4bbd d7d4 0dbc
00000030: 9bf5 b2bc 2f53 603d 3a4c 26bd 92bb 1fbd
00000040: 665c 9c3b 873b e8bb 2793 6c3d d806 683d
00000050: 5510 273d 690c 5fbc f7cd ba3c cc23 8c3d
00000060: d767 1fbd d72f 53bd 4fbf 863b 7f39 78bd
00000070: 6654 133c 9b9a 893c 4edd fbbc 60ca c73b
00000080: 3a17 563b ea00 2e3d 6554 48bb 14ae 973c
00000090: d19a 31bb 4d82 903d b189 06bd 70da b6bc
000000a0: 42dc 203d fa49 953c 3753 613d 9179 04bd
000000b0: 9c54 ff3c d417 c8bc 6e10 14bd 2fdc 053d
000000c0: 9e9c 2bbd d3c3 f33c 7cd3 6d3a cc66 0e3d
000000d0: a517 183b 7999 f63c 4233 823c 1b85 1bbd
000000e0: 60f7 043b 2e36 d4b7 3297 093d a651 e3bc
000000f0: 61f5 2dbd 9f7a 993b da45 b4bc 1399 da3c
00000100: b371 cfbc d127 b3bb 44fb 76ba 7643 8d3c
00000110: 60da fb3c 9b9c 4b3d 1404 123d d9eb 06bd
00000120: 764e 703c d54a 073d d8b7 173d ec16 f23b
00000130: 6bec 3d3c 21d0 cdbc 704f 453d ab9f 563c
00000140: d942 3d3d 4733 263c 41e4 f9bc a53b c13c
00000150: 1e51 c73c 3fb9 05bd 9b16 02bd 7ad0 d23c
00000160: af26 3e3c 4f2b 1b3d a78a bdbc 7d7b f73c
00000170: 692a 64bc f5e4 d63c 3d2a c2ba 13e4 063d
00000180: d0b1 153c 29b3 ab3c aa45 b73c 8e7f 263d
00000190: a423 e1bc c6bb da3c d7d7 4ebd f163 6aba
000001a0: 0963 d73c cbf6 f0bc c154 f4bc 146f 4e3d
000001b0: 18e6 93ba 5853 ac3b 1131 113d a888 d1bc
000001c0: 3fca 5fbd 56e5 09bd 7a06 693c fd27 0c3d
000001d0: cdab 9f3d 53b4 08bd faac 20bd 095f 0d3d
000001e0: 267c e7bc a5d8 1abd 5f2e 303d e5da d53c
000001f0: c73b b53c 0e9d 8dbc 44cc abbc 6784 20bb

fc2.weight f4 [128, 128]
0.007792836 -0.04499768 -0.062364057 -0.059224583 0.08257897 0.03145788 -0.02122394 -0.032797825
-0.035962526 -0.07643967 -0.011157799 -0.07628048 -0.08160074 0.017885152 -0.06265389 0.05580644
-0.024587069 -0.052752595 0.046968196 0.03329332 0.021304283 0.03479843 0.004914828 0.06755114
-0.055856366 0.006248997 0.05465813 0.034255218 -0.07974677 0.046674125 0.05985279 0.034498796
0.08658861 0.045391575 0.03564419 0.0447854 0.03715941 -0.06962783 -0.053274278 0.043906048
-0.07232458 -0.0523015 0.052511916 -0.040218186 0.08015629 -0.04670761 -0.08731334 -0.0001258294
-0.00021627654 0.053947788 0.045203738 -0.021890663 -0.027589116 -0.06725879 0.023386696 -0.046841975
0.011079995 -0.02807292 0.084775284 0.0064986646 -0.05541235 0.051381443 0.055679865 -0.07319933
-0.04493167 0.08595602 -0.060127474 0.07174838 0.04277786 0.022628326 0.04512525 -0.078739755
0.043496516 -0.014973194 0.03431371 -0.0101982625 -0.061950628 -0.031512607 0.0873452 0.051643156
-0.009415479 -0.023666004 0.059923094 0.037914544 -0.019399382 0.08699592 -0.06704089 -0.006917731
0.0054757185 -0.018187756 0.029908435 -0.050351206 0.062323377 -0.01819021 -0.026653657 -0.039507274
0.03882632 0.084290475 0.0142545905 0.0760739 -0.038275827 -0.08516944 0.055659886 0.0030780581
0.01736938 0.012282045 0.02407329 0.051335704 0.004918695 -0.016683672 0.0372024 0.04345986
-0.030545369 -0.08408181 -0.047835987 -0.06756101 -0.02948093 -0.01570774 -0.04080208 0.033029906
-0.051151816 0.0012857633 0.057335287 -0.020175476 0.051418226 -0.037145723 0.022092313 -0.065328844
0.007977745 0.068825595 0.06709892 0.052813824 0.07002335 -0.053813178 -0.018915348 0.057820458
0.07078478 0.025217755 -0.07126233 0.033003267 -0.045217212 -0.065035366 0.008303677 0.016907914
-0.034226097 0.041026365 -0.0010468329 0.032579776 -0.054178257 -0.016357308 0.038353726 0.058646865
-0.017748743 0.0102951685 0.036052752 0.042263396 -0.039117627 -0.06928078 -0.02173809 0.0076244175
0.0191867 -0.065568484 -0.00911807 -0.088240676 0.074743174 -0.06417518 0.07982608 0.06908016
-0.023892079 0.010353942 -0.059558608 0.08303106 0.075550504 0.08103092 0.06882461 0.055888165
-0.01894485 -0.028285002 0.05674935 0.027712364 -0.032438584 -0.061535567 0.06869943 -0.009905384
0.07107355 -0.06296151 0.06836933 -0.017716829 0.034547888 -0.029972836 -0.08591904 0.08006838
0.053415164 -0.027291706 -0.051400926 0.052581407 0.02182958 0.050989226 -0.01937871 0.0031312895
0.037897583 0.03816811 0.033089373 -0.015869373 -0.08583019 -0.078231774 -0.045261607 -0.038906228
0.08116068 0.010517609 0.01772607 -0.072637185 0.021375332 0.012167637 -0.04059849 0.06632919
-0.047018223 -0.040685818 -0.07302466 0.04104215 -0.049083576 -0.006889429 0.05741922 -0.054777373
-0.078826204 0.019414388 0.02439466 0.030565916 -0.023360923 0.038543902 0.07328217 -0.029913777
-0.08382085 -0.032648392 -0.06334488 -0.011150244 -0.069031045 0.08192183 -0.02896422 -0.06309369
-0.0689638 0.06568478 0.056297958 -0.016146384 -0.009397619 0.058947973 -0.009538211 -0.03882513
0.034417737 -0.057370815 0.07040337 0.026775345 0.037500348 0.02688166 0.052391894 0.028972944
00000000: 0c5b ff3b 7d4f 38bd 7471 7fbd 7a95 72bd
00000010: 2a1f a93d fad9 003d d4dd adbc 0357 06bd
00000020: 714d 13bd 678c 9cbd 33cf 36bc f138 9cbd
00000030: 4a1e a7bd e283 923c af50 80bd 4b95 643d
00000040: d26a c9bc 1b13 58bd b961 403d 945e 083d
00000050: 5286 ae3c cc88 0e3d 910c a13b 4158 8a3d
00000060: a5c9 64bd 63c4 cc3b 34e1 5f3d 334f 0c3d
00000070: 4652 a3bd 5e2d 3f3d 3328 753d 9c4e 0d3d
00000080: 5f55 b13d 84ec 393d a4ff 113d e570 373d
00000090: 7734 183d 0999 8ebd 2136 5abd d4d6 333d
000000a0: e91e 94bd 193a 56bd bc16 573d d3bb 24bd
000000b0: fb28 a43d 7b50 3fbd 56d1 b2bd 13f1 03b9
000000c0: 4bc8 62b9 5bf8 5c3d 8e27 393d 0c54 b3bc
000000d0: 9202 e2bc fabe 89bd 7595 bf3c 5fdd 3fbd
000000e0: de88 353c 2ef9 e5bc aa9e ad3d c0f2 d43b
000000f0: 0ff8 62bd 5975 523d 9210 643d 88e9 95bd
00000100: 450a 38bd b609 b03d 3a48 76bd d1f0 923d
00000110: d637 2f3d 0a5f b93c 41d5 383d 4f42 a1bd
00000120: 6729 323d 2152 75bc 888c 0c3d 9d16 27bc
00000130: f1bf 7dbd 5d13 01bd 0ae2 b23d c687 533d
00000140: 6243 1abc 35df c1bc eb71 753d 484c 1b3d
00000150: 74eb 9ebc eb2a b23d bc4c 89bd 22ae e2bb
00000160: a86d b33b 7dfe 94bc 8902 f53c 113d 4ebd
00000170: cc46 7f3d a303 95bc c558 dabc 61d2 21bd
00000180: 5908 1f3d 7ca0 ac3d 168c 693c a2cc 9b3d
00000190: 1dc7 1cbd 516d aebd 9ffb 633d 3fb9 493b
000001a0: 3b4a 8e3c a13a 493c 5935 c53c 6345 523d
000001b0: 012d a13b 32ac 88bc 8b61 183d f702 323d
000001c0: 483a fabc 1633 acbd abef 43bd 6d5d 8abd
000001d0: fe81 f1bc 85ad 80bc 1520 27bd 5e4a 073d
000001e0: 9184 51bd 0f87 a83a 68d8 6a3d 0a47 a5bc
000001f0: eb9b 523d 1d26 18bd f0fa b43c 21cb 85bd
00000200: 16b5 023c 6ff4 8c3d 296b 893d 4f53 583d
00000210: 6768 8f3d 356b 5cbd 5cf4 9abc 25d5 6c3d
00000220: 9cf7 903d 7795 ce3c fcf1 91bd 6f2e 073d
00000230: af35 39bd 4331 85bd 250c 083c 7782 8a3c
00000240: aa30 0cbd 430b 283d e235 89ba 5f72 053d
00000250: 05ea 5dbd c3ff 85bc cc18 1d3d b237 703d
00000260: d065 91bc 11ad 283c 0dac 133d 621c 2d3d
00000270: ce39 20bd 15e3 8dbd 1414 b2bc 40d6 f93b
00000280: 6d2d 9d3c c548 86bd f563 15bc 87b7 b4bd
00000290: f312 993d 476e 83bd db7b a33d e679 8d3d
000002a0: 52b9 c3bc 95a3 293c baf3 73bd 300c aa3d
000002b0: 39ba 9a3d 8af3 a53d ebf3 8c3d fdea 643d
000002c0: 3b32 9bbc f3b5 e7bc 0272 683d 0a05 e33c
000002d0: 52de 04bd b80c 7cbd 49b2 8c3d 314a 22bc
000002e0: 028f 913d f7f1 80bd 3805 8c3d e222 91bc
000002f0: 1682 0d3d 9889 f5bc 52f6 afbd e4fa a33d
00000300: dcc9 5a3d db92 dfbc c789 52bd 9a5f 573d
00000310: f3d3 b23c 14da 503d 1ac0 9ebc 5236 4d3b
00000320: 7f3a 1b3d 2a56 1c3d b988 073d 7d00 82bc
00000330: bdc7 afbd fb37 a0bd 3c64 39bd 235c 1fbd
00000340: 9237 a63d 0d52 2c3c 4336 913c cec2 94bd
00000350: 521b af3c c55a 473c 9a4a 26bd 99d7 873d
00000360: 2e96 40bd 2ca6 26bd f48d 95bd d01b 283d
00000370: dc0b 49bd b8c0 e1bb 6b30 6b3d 3d5e 60bd
00000380: a26f a1bd ec0a 9f3c 4fd7 c73c 5f65 fa3c
00000390: 685f bfbc 36e0 1d3d f614 963d bd0d f5bc
000003a0: 44aa abbd 52ba 05bd f6ba 81bd 83af 36bc
000003b0: 2660 8dbd a2c6 a73d 5f46 edbc 4437 81bd
000003c0: e53c 8dbd be85 863d b098 663d 6c45 84bc
000003d0: 79f8 19bc 6e73 713d 2846 1cbc 1907 1fbd
000003e0: 9df9 0c3d a9fd 6abd a42f 903d f857 db3c
000003f0: f799 193d ed36 dc3c e298 563d ab58 ed3c

fc2.bias f4 [128]
-0.037125293 0.0847534 0.07658372 -0.024688369 0.0065578176 0.040576827 -0.027601497 0.03928632
0.027253743 -0.058521233 0.067831114 -0.072937705 0.03504306 0.070156835 0.06765251 0.064721555
-0.07861003 0.032320373 -0.07613912 -0.08704224 0.058182858 0.020248894 -0.01378184 0.056311477
0.07923992 0.07782623 0.08059874 -0.061197065 0.014732241 0.035876956 -0.07963064 -0.033511654
0.063186646 -0.047511194 0.017550906 0.019961463 -0.052742418 0.017329162 0.052016735 0.04891853
0.06807208 0.053425904 0.011429783 -0.03229713 0.049926862 -0.020991227 -0.03648817 -0.07810461
-0.026779518 0.0012589053 -0.011835636 0.06426554 -0.022774566 -0.049889717 0.023197183 -0.0005158142
-0.08154236 0.0713157 0.014929203 -0.058038842 -0.088265024 0.025785293 -0.058953978 0.07793105
-0.027765268 -0.024289798 -0.03187288 0.046202827 0.00042068877 0.03699467 0.07083522 -0.0117931515
0.05123409 0.08019933 0.055363487 0.031225787 -0.017037695 -0.05108751 0.016147964 0.03505054
-0.050141156 -0.013220054 0.06399293 -0.038895335 0.043383624 0.05559674 -0.015793404 -0.016543418
-0.086961076 0.05935373 -0.00057107926 0.035159755 -0.022610415 0.06385031 0.0119908 0.013380455
0.071675085 -0.016105922 0.082584195 -0.026262386 -0.055932637 -0.024600893 0.06851302 0.015560616
0.03811255 0.07884744 0.03432411 0.039405048 -0.08545898 -0.035865944 0.05688742 0.07494033
-0.03302313 -0.037422597 0.029139077 -0.026232146 0.0034886843 -0.026516868 0.08582849 -0.043865018
-0.045607936 -0.053410605 0.001787785 0.082487345 -0.036664207 0.059660412 -0.071403675 -0.014098036
00000000: b110 18bd 3193 ad3d edd7 9c3d 433f cabc
00000010: f6e2 d63b e333 263d 891c e2bc b1ea 203d
00000020: 3e43 df3c f6b3 6fbd 0aeb 8a3d 5d60 95bd
00000030: 5089 0f3d 63ae 8f3d 668d 8a3d bc8c 843d
00000040: 4cfe a0bd 5e62 043d d4ee 9bbd 3443 b2bd
00000050: 2651 6e3d 02e1 a53c 3acd 61bc dda6 663d
00000060: 8a48 a23d 5c63 9f3d f410 a53d c6a9 7abd
00000070: 7f5f 713c b7f3 123d 6415 a3bd 8443 09bd
00000080: 0068 813d 199b 42bd ebc6 8f3c 3986 a33c
00000090: 6f08 58bd e3f5 8d3c 800f 553d cc5e 483d
000000a0: 6069 8b3d 1fd5 5a3d fc43 3b3c ff49 04bd
000000b0: 1c80 4c3d cbf5 abbc 9f74 15bd 4ff5 9fbd
000000c0: b860 dbbc da01 a53a 41ea 41bc a79d 833d
000000d0: ba91 babc 2959 4cbd 0508 be3c b437 07ba
000000e0: aeff a6bd f70d 923d 9e99 743c 23ba 6dbd
000000f0: 4bc4 b4bd ae3b d33c ba79 71bd 509a 9f3d
00000100: fd73 e3bc 66fb c6bc 238d 02bd 2d3f 3d3d
00000110: e48f dc39 b987 173d 0e12 913d 1038 41bc
00000120: d6da 513d 8c3f a43d d3c4 623d 39cd ff3c
00000130: a392 8bbc 2341 51bd bc48 843c 2891 0f3d
00000140: d060 4dbd ed98 58bc ba0e 833d b750 1fbd
00000150: 07b3 313d 68b9 633d 2b61 81bc 1086 87bc
00000160: a618 b2bd e61c 733d 7bb4 15ba ad03 103d
00000170: 7a39 b9bc f4c3 823d 0f75 443c b239 5b3c
00000180: 63ca 923d 91f0 83bc e721 a93d 3724 d7bc
00000190: 9f19 65bd d087 c9bc 8e50 8c3d f4f1 7e3c
000001a0: e81b 1c3d c47a a13d 7097 0c3d 3067 213d
000001b0: 1e05 afbd 2be8 12bd c902 693d 517a 993d
000001c0: 4343 07bd 7048 19bd 13b5 ee3c cce4 d6bc
000001d0: 69a2 643b e739 d9bc d9c6 af3d ceab 33bd
000001e0: 63cf 3abd 14c5 5abd 1c54 ea3a 20ef a83d
000001f0: 352d 16bd 7a5e 743d 173c 92bd 73fb 66bc

fc3.weight f4 [10, 128]
-0.114623316 0.017369827 0.053335965 -0.10192473 -0.04177063 -0.16508879 -0.17838757 0.07639549
0.030897006 0.079366274 -0.07293405 -0.059125483 0.085990705 -0.0754868 -0.15075836 0.15446539
0.07568171 0.054544017 0.058520097 0.043744996 0.01681237 -0.02155563 0.09667797 0.11519557
0.020219835 -0.23073441 -0.28725904 0.0018632723 -0.23053312 0.033267237 -0.1283178 -0.2519932
-0.26066598 0.057021756 0.013191851 -0.1775051 -0.08216386 0.047754977 0.011680128 0.04046689
-0.20608385 0.08095877 -0.0073402394 -0.04055732 -0.1847688 -0.03886894 0.046807844 0.034071814
-0.13691865 0.09081702 0.067105696 0.035027575 -0.070028596 -0.23990852 -0.16799784 0.025163762
-0.01641603 -0.15074551 0.075966105 0.02751111 -0.020730594 -0.24330601 0.07455601 0.10211902
0.067278214 -0.24107404 0.07511183 -0.17228587 -0.27884248 -0.14182302 0.08337621 -0.122916326
0.08855226 -0.04865078 0.043721847 -0.4211476 -0.19255444 0.13886186 0.045429908 -0.23461029
-0.11316368 -0.057308514 -0.05181414 -0.08482546 -0.049083985 -0.26902163 0.01702471 0.04156556
0.0055257594 -0.28129607 0.054722805 -0.15981914 -0.1957329 -0.19640167 -0.29525813 -0.010147406
0.08428819 -0.21755311 -0.21484824 -0.21773982 0.060546782 -0.052280813 0.0011553464 -0.068032525
-0.20509169 -0.168997 0.020726837 -0.05708747 0.0034847734 -0.19824012 -0.09821701 -0.16262099
0.03294111 -0.050255246 0.06834646 0.0054047676 0.13590753 -0.1931079 -0.11246226 0.034437492
-0.17050898 0.09449364 0.085106134 -0.045951903 0.038299132 0.059509635 0.054621868 0.05397544
0.055149615 0.08495896 -0.0290822 -0.0128097655 0.036719456 0.041788504 -0.033005763 -0.027781202
-0.20947856 -0.044165537 -0.22820447 -0.004280525 -0.19318746 0.058977894 0.054949768 0.006431965
-0.05629439 -0.07885177 -0.12910615 0.10332535 -0.22013853 -0.06715421 -0.19814523 0.09564238
-0.059352078 0.032938242 -0.2760368 -0.42088166 0.15758446 0.118735 -0.13955411 0.059657905
0.058272023 -0.019405141 0.045927394 0.07997499 -0.08866007 0.034979314 0.046266537 -0.35979977
0.061275367 0.10989122 0.1314387 -0.13463081 0.038620237 -0.07637304 -0.2842771 -0.061546125
-0.06006672 -0.14105342 -0.11855931 -0.08236063 -0.12531976 0.07633705 -0.23891109 -0.17257135
-0.20160167 -0.20902956 -0.24815048 -0.48508552 -0.17884265 0.018811118 -0.1539081 0.08836116
-0.08833263 -0.09035572 -0.07531541 0.03445769 -0.17262772 -0.028014004 -0.055578187 -0.020170953
0.05788317 -0.16419813 -0.1511726 0.018273951 0.13852602 0.021197649 -0.05669339 -0.03789132
-0.018941222 0.11997237 -0.33330867 -0.11763527 -0.11453827 -0.25247082 0.034939505 0.07861018
0.002811065 0.019463148 0.17769073 0.049879935 -0.026711253 0.013001895 0.07383737 0.069387645
0.084642716 0.012213539 -0.037340123 0.07139465 -0.121919416 0.044968568 -0.22319213 -0.16915101
-0.0030527248 0.040872384 -0.12037875 0.08367666 0.039848037 -0.09656919 0.12698539 -0.107076555
-0.2822226 -0.17163181 0.037785888 -0.2741126 0.12212487 -0.013899284 -0.12076574 0.065768845
0.08917503 -0.26257885 0.07522204 0.015325138 0.07097095 -0.111146495 -0.12539457 -0.21472657
00000000: a1bf eabd 2b4b 8e3c d076 5a3d eabd d0bd
00000010: ae17 2bbd 090d 29be 3bab 36be 3d75 9c3d
00000020: b81b fd3c c98a a23d 725e 95bd 902d 72bd
00000030: e51b b03d d398 9abd 6660 1abe 2d2c 1e3e
00000040: 03ff 9a3d 8c69 5f3d c5b2 6f3d f42d 333d
00000050: 18ba 893c 6f95 b0bc 19ff c53d a8eb eb3d
00000060: 11a4 a53c a445 6cbe 9e13 93be 0b39 f43a
00000070: e010 6cbe 3a43 083d be65 03be 4105 81be
00000080: 0376 85be a58f 693d a222 583c e6c3 35be
00000090: 8745 a8bd b99a 433d 025e 3f3c 9cc0 253d
000000a0: a507 53be b6cd a53d 6486 f0bb 6f1f 26bd
000000b0: 0834 3dbe 0a35 1fbd 95b9 3f3d e38e 0b3d
000000c0: 6734 0cbe 46fe b93d b66e 893d 1379 0f3d
000000d0: 276b 8fbd 94aa 75be a007 2cbe 3c24 ce3c
000000e0: e97a 86bc 085d 1abe 1e94 9b3d fb5e e13c
000000f0: 35d3 a9bc 3625 79be d2b0 983d c723 d13d
00000100: 29c9 893d 1ddc 76be 3bd4 993d b56b 30be
00000110: 71c4 8ebe 0e3a 11be 25c1 aa3d 8ebb fbbd
00000120: e35a b53d 0a46 47bd ae15 333d a9a0 d7be
00000130: fe2c 45be ce31 0e3e b614 3a3d ae3d 70be
00000140: 5cc2 e7bd 55bc 6abd 103b 54bd f9b8 adbd
00000150: 4a0c 49bd 34bd 89be 6877 8b3c a640 2a3d
00000160: 6e11 b53b 0a06 90be 0525 603d a1a7 23be
00000170: 356e 48be 851d 49be 132c 97be 4e41 26bc
00000180: 499f ac3d 3ec6 5ebe 2d01 5cbe 30f7 5ebe
00000190: e7ff 773d 6824 56bd fe6e 973a a354 8bbd
000001a0: 8e03 52be 8d0d 2dbe 54cb a93c 8dd4 69bd
000001b0: cc60 643b 75ff 4abe 0026 c9bd 1e86 26be
000001c0: 42ed 063d 72d8 4dbd 3bf9 8b3d 7a1a b13b
000001d0: 582b 0b3e 14be 45be 9d52 e6bd 540e 0d3d
000001e0: e899 2ebe e285 c13d 204c ae3d 1038 3cbd
000001f0: 8ddf 1c3d 60c0 733d 2ebb 5f3d 5a15 5d3d
00000200: 90e4 613d f7fe ad3d cb3d eebc 0de0 51bc
00000210: 2467 163d 6c2a 2b3d 0d31 07bd 6795 e3bc
00000220: 8c81 56be ece6 34bd 6fae 69be a543 8cbb
00000230: efd2 45be ce92 713d 0213 613d 3cc3 d23b
00000240: f294 66bd 097d a1bd 6734 04be 3e9c d33d
00000250: ff6b 61be 2588 89bd 95e6 4abe 27e0 c33d
00000260: 2a1b 73bd 40ea 063d b254 8dbe cd7d d7be
00000270: d25d 213e 562b f33d 46e7 0ebe d95b 743d
00000280: a5ae 6e3d 88f7 9ebc 5d1e 3c3d edc9 a33d
00000290: 6993 b5bd 7846 0f3d fb81 3d3d ad37 b8be
000002a0: e1fb 7a3d a60e e13d de97 063e a9dc 09be
000002b0: 4130 1e3d 7869 9cbd c58c 91be ca17 7cbd
000002c0: 8508 76bd 4f70 10be 39cf f2bd b1ac a8bd
000002d0: d353 00be 9956 9c3d 1ca5 74be 8bb6 30be
000002e0: ab70 4ebe d80b 56be 291b 7ebe 215d f8be
000002f0: 8722 37be c619 9a3c 169a 1dbe b2f6 b43d
00000300: bde7 b4bd 6b0c b9bd f73e 9abd 8223 0d3d
00000310: 52c5 30be a07d e5bc f4a5 63bd 8e3d a5bc
00000320: e716 6d3d 8e23 28be fdcc 1abe 41b3 953c
00000330: c4d9 0d3e b1a6 ad3c 5437 68bd ee33 1bbd
00000340: 9f2a 9bbc 13b4 f53d 6fa7 aabe c3ea f0bd
00000350: 0a93 eabd db43 81be ba1c 0f3d 60fe a03d
00000360: d839 383b 2e71 9f3c 8ff4 353e e74e 4c3d
00000370: 8fd1 dabc e605 553c 0c38 973d 1c1b 8e3d
00000380: 2959 ad3d 4c1b 483c f5f1 18bd 5c37 923d
00000390: e3b0 f9bd f630 383d 7a8c 64be ec35 2dbe
000003a0: 3910 48bb cd69 273d 2289 f6bd ab5e ab3d
000003b0: b237 233d 11c6 c5bd 7508 023e f44a dbbd
000003c0: 7b7f 90be 40c0 2fbe 60c5 1a3d 7d58 8cbe
000003d0: 9b1c fa3d d3b9 63bc 0754 f7bd d1b1 863d
000003e0: 66a1 b63d bc70 86be 030e 9a3d 4a16 7b3c
000003f0: 3859 913d c6a0 e3bd 6f67 00be 48e1 5bbe

fc3.bias f4 [10]
-0.029413778 -0.0012610017 0.090344205 0.035258416 0.03706892 -0.04486113 -0.07711425 -0.035920147
0.120789304 0.09310719
00000000: 2af5 f0bc 3248 a5ba 6206 b93d 216b 103d
00000010: 94d5 173d 4ec0 37bd 13ee 9dbd 0121 13bd
00000020: 6260 f73d fcae be3d
