models/checkpoint_2.pth (torch, 180745 bytes, 10 tensors)

conv1.weight f4 [8, 1, 5, 5]
000000 f2 8e 74 3d e4 d1 3c 3e df 75 80 bd e6 2d f8 3d
       0.059706636 0.18439442 -0.06272482 0.121181294
000010 31 a6 60 3e 75 a3 5c be 34 66 70 3d 2b ca 3a be
       0.21938397 -0.21546729 0.05869122 -0.18241183
000020 51 ce 2b 3e 77 e3 b1 3e a3 ef 15 be c8 fa 1c 3e
       0.16777922 0.34743854 -0.14642195 0.1533004
000030 43 02 30 be 05 17 27 be 81 15 94 bd 26 55 5b 3e
       -0.17188363 -0.16317375 -0.07230664 0.214192
000040 89 db 1f be 84 85 82 be cb 7f 95 3d 9b 77 12 be
       -0.1561109 -0.2549249 0.07299765 -0.14303438
000050 a9 97 44 3d 43 bf a7 bd 15 a1 36 3e c7 69 44 be
       0.047996197 -0.08190777 0.17834885 -0.19180976
000060 12 59 7d be b0 e9 8e be c1 56 d3 be b4 bd af 3d
       -0.24741009 -0.27912664 -0.41277125 0.08581105
000070 12 1f 41 3e d5 da 00 3f 10 b3 8e be b7 49 d2 3d
       0.18859509 0.5033391 -0.2787099 0.10267966
000080 e4 10 75 3e 13 e8 d1 3e 7c c3 bf 3e b3 f0 47 bd
       0.23932225 0.4099737 0.3745383 -0.048813533
000090 a0 b2 0d 3e 9a e5 11 3f b3 be 5c 3e 6f 22 7e be
       0.13837671 0.5699097 0.21557121 -0.24817823
0000a0 27 3b a6 3e 2c f2 b6 3e 82 65 9f 3e 99 7c ba be
       0.32467005 0.35731637 0.31132132 -0.36423185
0000b0 20 b8 eb be b5 6b 5f 3e 77 ba 96 3e 11 b2 82 be
       -0.46038914 0.2181843 0.29439136 -0.2552648
0000c0 e6 77 6f be 82 35 fc bc 3b b0 18 3e 01 dc c9 3e
       -0.23385581 -0.030787233 0.14910977 0.39425662
0000d0 52 25 cf 3e 7d 41 c2 3e 10 1d 2b 3e 0c 65 80 3d
       0.4045816 0.3794059 0.16710305 0.06269273
0000e0 41 25 de 3c 2d 5a 3e 3e 2a 91 f7 3e bb 61 0b 3e
       0.027117373 0.18589087 0.4835294 0.136115
0000f0 98 b4 b9 be 9b 32 8f be 24 5d 16 be d9 44 37 3d
       -0.36270595 -0.27968296 -0.14683968 0.044743393
000100 9d 1f ea 3e 9e a0 59 be 69 ca 81 be ac 52 ba be
       0.45727244 -0.21252677 -0.2534974 -0.363912
000110 c5 18 7a be b1 8e 27 3e 5b 30 95 be 28 c2 29 be
       -0.24423511 0.16363026 -0.29138455 -0.16577971
000120 d0 13 8e be a4 ea 1b bd 1e 61 64 bd 5c cb ce 3d
       -0.2774949 -0.038065568 -0.05575668 0.100973815
000130 0f 19 dd 3e 88 bb a1 3e 4d 16 ae bd 9e e3 ab be
       0.4318318 0.31588387 -0.08500347 -0.33572096
000140 db 9f 70 be e5 93 39 3e 61 ff 5d 3e 36 a3 d6 3d
       -0.2349848 0.18122824 0.2167945 0.10480349
000150 82 a9 4d be 18 95 1a bd 01 cb 30 3e 3f 29 ce 3e
       -0.20084193 -0.037739843 0.1726494 0.40265843
000160 3d c4 6f 3e de 4b fe be e0 7f 0a bc 48 59 01 3e
       0.23414703 -0.49667257 -0.008453339 0.12631714
000170 64 c3 90 3e 7e e5 71 be 58 b8 43 be 2b 79 82 bd
       0.2827407 -0.236227 -0.1911329 -0.06370767
000180 98 2a ba 3e f7 97 5a 3e da 86 df bd 98 91 a7 be
       0.3636062 0.21347032 -0.10914393 -0.32728267
000190 61 cf 62 be f0 f7 75 be 47 8c df bd ba de cb be
       -0.22149421 -0.24020362 -0.10915428 -0.39818364
0001a0 9c e8 8f be 43 35 1c be f8 88 0f be 03 68 96 be
       -0.28107154 -0.15254693 -0.14017093 -0.2937623
0001b0 fb 48 ca be 23 b6 ad be 3b 70 3d be 52 4b 70 be
       -0.39508805 -0.33928022 -0.18499844 -0.23466232
0001c0 2f 86 b2 be 91 ee ac be 40 89 4e bc 8d 9e e0 bd
       -0.34868 -0.33775762 -0.012605965 -0.10967741
0001d0 6f fb a4 be 82 f5 96 be d8 8b 5e 3d 7c a3 05 3e
       -0.3222308 -0.29484183 0.054332584 0.13050646
0001e0 2a 43 a5 3d 31 c9 a7 3e 33 3a bc 3d a9 aa a8 3e
       0.08069451 0.32770684 0.09190788 0.32942703
0001f0 1a b1 d9 3c dc ce d7 3d 6e f0 58 3e cb c1 87 3e
       0.026573706 0.10537502 0.21185467 0.2651504
000200 99 c7 4a 3e 4c b3 fa bb 4e 47 85 3e 9a ba 23 3e
       0.19802703 -0.0076507684 0.26030964 0.15989152
000210 d5 4f 82 bc 95 af 1c 3e ef 25 d0 3e be 68 65 3e
       -0.015907208 0.15301354 0.4065394 0.22403237
000220 bc 64 c7 3c 26 e3 87 3e 5f e0 cb 3c d8 32 d3 3d
       0.024340026 0.26540488 0.024887262 0.10312432
000230 37 fe f5 bd 15 45 8c bd 2c e9 6f be 68 cc 59 be
       -0.12011378 -0.06849114 -0.23428792 -0.21269381
000240 07 e2 ab be d1 db be be 9c 8a a9 be e8 93 6f be
       -0.33570883 -0.37277082 -0.33113563 -0.23396266
000250 8b 92 2a be 06 04 3e be e3 4d 9a be c7 69 fb bd
       -0.16657464 -0.18556222 -0.30137548 -0.12276035
000260 2b 82 94 3e ba 1f db 3e 04 80 80 3d 10 e3 a2 be
       0.2900556 0.42797643 0.06274417 -0.3181386
000270 9a 52 42 be 17 3f ff 3d a9 c8 a6 3e 00 c3 0e be
       -0.18976822 0.12463205 0.32574967 -0.13941574
000280 e6 20 8f be 2c f0 76 3c 70 d6 be 3e 90 53 84 3e
       -0.27954787 0.01507191 0.37272978 0.25845003
000290 ec 2a 4a be a0 9e 45 be f9 ec 90 ba fe a0 f7 3d
       -0.19742936 -0.19298792 -0.0011056951 0.12091254
0002a0 37 59 31 3e a7 08 de bd e8 6a 2a be 62 b3 8f 3d
       0.17319189 -0.10841494 -0.16642344 0.070166364
0002b0 86 26 8b 3e 61 b5 8b 3e f0 e0 81 be 8b f3 65 3d
       0.2717783 0.2728682 -0.25366926 0.056140464
0002c0 a2 59 9d bc 59 09 45 3d f3 9b 7d be b7 6f a7 3d
       -0.01920778 0.048104618 -0.24766521 0.08175605
0002d0 fb 3f 93 bd fd 17 14 3e f1 6b b0 3e ef a8 84 3e
       -0.07189938 0.14462276 0.34457353 0.25910136
0002e0 13 1f 48 3e ac cb 28 3e 5f eb a1 3e f0 81 81 3e
       0.19543104 0.16483945 0.31624886 0.25294447
0002f0 82 33 d1 3d 92 c7 84 3e 86 ad fe bd fd fa bd be
       0.102149025 0.2593351 -0.12435441 -0.3710555
000300 8e 32 51 be ee 10 1c be bb 6f 8d 3d 63 0a bc bd
       -0.20429441 -0.15240833 0.069060765 -0.091816686
000310 69 a0 7b be 22 8a 02 be 1c ac 72 be 66 27 4c bd
       -0.2457291 -0.12748006 -0.23698467 -0.04984226

conv1.bias f4 [8]
000000 0b 2a 83 bd 41 a2 7a 3e f2 19 77 3e 52 ef 8a 3d
       -0.064045034 0.24475957 0.24130991 0.06783928
000010 fa 3d a2 3d 78 b3 30 3e 42 a6 77 3d 02 98 9b 3e
       0.07921977 0.17255962 0.06046129 0.3038941

conv2.weight f4 [8, 8, 3, 3]
000000 2d 01 2b 3d 4c 2b ff bd e4 ac f5 bc ab a0 a6 3d
       0.04174917 -0.1245943 -0.029989667 0.08136114
000010 81 1f 9e 3d 0a a4 a9 3d 2c 08 9e 3d 54 42 03 3e
       0.07720853 0.08283241 0.077164024 0.12818271
000020 01 f1 bb 3d 59 7c 9b bd 37 99 6c bc e1 9b 48 bc
       0.09176827 -0.07592077 -0.014440826 -0.012244196
000030 d0 f2 f9 3d 72 1d 12 3c 52 47 48 3d a8 0d 81 bc
       0.12204516 0.008918153 0.04889614 -0.015753582
000040 d2 24 ae 3d e3 1f 43 3d c6 ec cc 3d 73 f6 9b 3b
       0.08503117 0.04763783 0.100060984 0.0047596036
000050 7f 3b 0f be fa 6a 3f 3e 1b 54 fb 3d 05 15 8c 3e
       -0.1398754 0.18693152 0.12271901 0.27359787
000060 53 e5 9a bd b3 1a b2 3c 07 74 fe 3d ad 63 0e bc
       -0.075632714 0.021741247 0.12424474 -0.008690757
000070 2c a9 0f 3d 4f 8b 95 ba d4 74 b1 3d 62 59 9e bd
       0.035073444 -0.0011409315 0.08664861 -0.07731892
000080 0b 02 76 bd 29 07 1a bd f5 b3 ea bd 96 90 c5 3c
       -0.060060542 -0.037604485 -0.11460105 0.024116796
000090 a8 55 bc bb 17 2a 0a be ad b5 66 be a5 fc 84 bc
       -0.0057475157 -0.13492619 -0.22530241 -0.016233752
0000a0 5c 4e da bc 42 21 d4 bd 4e aa e0 3d 70 00 75 3d
       -0.026648693 -0.10357906 0.10969983 0.05981487
0000b0 c5 c5 71 3d db f1 e2 3c ed e6 a5 bc e8 de da bc
       0.0590265 0.027703216 -0.020251716 -0.026717618
0000c0 16 68 94 3d 81 3a 42 3e 7e c2 77 3d 87 ef 79 bd
       0.07246415 0.1896763 0.060488217 -0.061019447
0000d0 94 04 75 bd b4 91 26 3e 22 ac 02 3d 7a 00 e1 3d
       -0.05981882 0.16266519 0.03190244 0.10986419
0000e0 e3 68 a8 3c d5 64 9d bd f9 c2 22 bd bd e7 04 be
       0.020557826 -0.07685248 -0.03973672 -0.12979026
0000f0 54 f5 84 3d 88 2e 7a bd 79 dd 96 3d 0c f0 8e 3c
       0.06492105 -0.061079532 0.07366461 0.017448448
000100 ed c1 1a 3e 68 69 63 3e 33 92 4e 3e ae 50 3b 3e
       0.1511304 0.22208178 0.20172958 0.18292496
000110 1c b7 eb 3d 25 28 ee bd 3c 80 61 bd c5 12 d9 3d
       0.11509535 -0.11628751 -0.055053934 0.10599283
000120 c5 ad 34 bd eb df 69 be 16 67 1c be c6 a0 0f be
       -0.044111032 -0.22839324 -0.15273699 -0.14026174
000130 d8 6e af 3d b2 f2 05 3e a2 ce 32 bc 38 42 be 3d
       0.08566064 0.13080862 -0.010913523 0.09289974
000140 c9 d6 f3 bd 7c b8 83 3e c9 a8 09 be ee 28 aa 3d
       -0.119062014 0.25726688 -0.13443293 0.08308588
000150 2a 66 a3 3e 2b 71 48 3e e8 fb 12 3e f3 47 97 3e
       0.31913882 0.1957442 0.14353907 0.2954708
000160 83 e2 8b 3e 93 93 08 3e 9f 62 d4 bd af 4c a8 bc
       0.27321252 0.13337545 -0.10370373 -0.020544378
000170 b8 11 5c be 54 76 56 be 8f 32 51 be 44 26 01 3e
       -0.21491134 -0.20943576 -0.20429443 0.12612253
000180 14 3c 5a bd 33 be 21 3e b6 c1 e0 3c 43 0e e5 bd
       -0.05327995 0.15795211 0.027436119 -0.11184361
000190 42 c8 95 be 04 7a 92 be 13 e3 5e be f9 4f ce bd
       -0.29254347 -0.28608716 -0.2176631 -0.10073847
0001a0 72 f9 d3 bd d3 29 d5 3c 1a 3b 33 be 16 fa 97 3d
       -0.10350312 0.02602092 -0.17503014 0.07420747
0001b0 a2 d5 15 3e a3 3b 36 3e bf 0d af 3d 0e 7c 54 3e
       0.14632276 0.17796187 0.08547544 0.20750448
0001c0 a3 ef cb 3c c6 f4 24 be 08 44 e6 bd e6 21 2d be
       0.024894541 -0.16108999 -0.11243445 -0.16907462
0001d0 ed ef 2b be 30 eb 16 3e 58 46 0e 3e 74 be ce 3d
       -0.16790743 0.14738154 0.13894022 0.1009492
0001e0 5c 6c 35 be 16 a6 4b 3d 94 59 c5 3d c7 1d 8e 3d
       -0.17717117 0.04971894 0.09636226 0.06939273
0001f0 f0 af 40 3d fb df ae 3d 8a 25 2b 3d 06 04 94 bd
       0.047042787 0.08538815 0.041783847 -0.0722733
000200 81 01 19 bd 3f dc 66 bc 99 ac 1b bd d3 7b 1a be
       -0.03735495 -0.014090597 -0.0380064 -0.15086298
000210 13 42 07 3e da 8c 07 3d 82 c3 0d be b8 0c 6b bd
       0.13208799 0.03309331 -0.13844112 -0.057385176
000220 e6 bf 2f be 69 61 a5 bd 24 7c 6d bd 29 68 3e 3e
       -0.17163047 -0.0807522 -0.057979718 0.18594421
000230 b1 cb 7f 3e 79 e6 77 3e 63 16 6f 3e b6 e0 30 3c
       0.24980046 0.24209012 0.23348384 0.010795763
000240 58 c5 80 be 85 e2 8a be 63 19 67 3d 5f a9 83 be
       -0.2515056 -0.27125946 0.056420695 -0.25715157
000250 6f d9 35 be 0c ff ea bc 04 ef 68 be b5 75 29 be
       -0.17758726 -0.028686069 -0.22747427 -0.16548808
000260 bb 6e b6 bd 24 fe 7d be 3e b2 85 bd 9b 52 19 3e
       -0.08907839 -0.24803978 -0.065281376 0.14972918
000270 c4 74 35 be 7d 4b 46 3e 0e f9 6c 3e ff 46 90 3c
       -0.17720324 0.19364734 0.23141882 0.017611979
000280 03 c0 b4 3d 6d 77 ef 3c 5c 82 00 3e be 79 79 3d
       0.08825686 0.029231751 0.12549728 0.060907118
000290 9b 2a 56 be 95 09 5b bd cf a4 35 be 17 3f a3 be
       -0.2091469 -0.053475935 -0.1773865 -0.3188407
0002a0 d8 bc 1a be 0a 9c 0e bc b9 68 2b be 2e 22 cc be
       -0.151111 -0.008704195 -0.16739167 -0.39869827
0002b0 5d 47 53 3d 50 59 a1 3e 71 22 c6 be dc fa 94 3c
       0.05158173 0.31513453 -0.38698152 0.018186025
0002c0 94 12 1a 3e b4 91 11 bd 88 2e 7c 3e a2 c1 97 3e
       0.1504615 -0.035539344 0.24627125 0.29639918
0002d0 c7 18 11 3e af 2b 0f 3e 43 fb b1 bb 7d af 86 3d
       0.14169608 0.13981508 -0.005431564 0.065764405
0002e0 b4 1a 12 bc 2c 50 3a be 13 eb 2d 3e d2 47 19 bd
       -0.008917499 -0.18194646 0.16984205 -0.03742201
0002f0 19 92 d5 3c 16 4a e1 3d 43 21 4a be 7f 79 75 bd
       0.026070641 0.11000459 -0.19739251 -0.05993032
000300 fd 60 13 be ce 62 7d be 80 f8 1f 3d 56 fc 6a be
       -0.14392467 -0.24744722 0.039055347 -0.22947821
000310 87 bc 21 be ce ca 2f 3d 9e 43 57 bd 2d ed 88 3d
       -0.15794574 0.04291802 -0.05255472 0.06685863
000320 33 ad f7 3d e4 02 02 3d 55 da 8d 3e 0a e4 a0 3e
       0.12093582 0.031741038 0.27705637 0.3142398
000330 17 ee 32 3e 5e 62 3c 3e 5c ec b0 3e 58 35 9c bd
       0.17473637 0.18396899 0.34555328 -0.07627362
000340 1b dd f6 bd 0e b0 50 be 61 36 8c be 61 24 11 be
       -0.12053891 -0.2037966 -0.27385238 -0.14174034
000350 48 0d 3a be 68 ff 3b be 70 1d 16 be 03 ee 7e bd
       -0.18169129 -0.18359149 -0.14659667 -0.062238704
000360 74 8b 3f 3d f9 54 c9 3c 39 2f 5a 3e d9 01 08 3e
       0.046763852 0.024576651 0.21307077 0.13281955
000370 f9 5d ba bc 8e 49 9a b7 1e a7 e1 3b 21 a5 3e 3d
       -0.022749888 -1.8392482e-05 0.006886377 0.046544198
000380 23 5e b7 3d 64 05 aa 3d ca 8c 4e 3e e9 7a d8 3e
       0.08953502 0.083018094 0.20170894 0.42281273
000390 ad 97 93 3e 19 7e 1c 3e 90 f6 86 3e 50 22 9b bd
       0.28826657 0.15282477 0.26359987 -0.07574904
0003a0 d3 b6 63 bd 84 75 fa bd 85 1a 1e 3c b9 73 48 be
       -0.055594277 -0.122294456 0.009649877 -0.19575395
0003b0 4c 38 3a be f9 97 d5 bd df d8 e5 bd 64 41 0f be
       -0.18185538 -0.10429377 -0.112230055 -0.13989788
0003c0 6d f9 0d 3e e8 b0 d2 3c 61 82 d9 bd fd 69 bf 3d
       0.1386468 0.025719121 -0.10620571 0.093463875
0003d0 e0 35 37 3e 36 d8 82 3e ff 13 80 3c f6 d5 cb 3d
       0.17891645 0.2555558 0.015634535 0.09952919
0003e0 46 ef bd 3d 4b 1e 11 be e4 38 55 be a1 b1 ae 3b
       0.092741534 -0.14171712 -0.20822483 0.0053312336
0003f0 bb d0 f0 bd 81 2f be 3c 60 7d d5 bd d8 4e 4f 3d
       -0.11758562 0.023216011 -0.10424304 0.0506123

conv2.bias f4 [8]
000000 a3 67 0a 3e bb 08 4d bc 3e 4d d0 3d 82 93 d4 3d
       0.13516097 -0.012514289 0.10170983 0.103796974
000010 39 42 95 3d 7c 1d 0e 3e 2c 63 3e 3e 65 46 93 3d
       0.072880216 0.13878435 0.18592519 0.07191161

fc1.weight f4 [128, 200]
000000 35 46 db bd 54 b2 d9 3d 44 47 de 3c 8a bb be 3c
       -0.1070675 0.106297165 0.027133591 0.023282785
000010 18 8f c1 3c eb b5 0d be a5 3e 7b 3d 16 39 fe 3d
       0.023627803 -0.13838927 0.06133904 0.12413232
000020 81 0d 12 3d f8 1b dc b8 bb b0 82 3c 36 84 31 bd
       0.03565741 -0.00010495627 0.015953412 -0.043338977
000030 a7 63 c0 3d 50 57 93 3d 32 17 d0 3c f4 0d 30 3d
       0.09394007 0.07194388 0.025401685 0.042982057
000040 4c a5 77 3d 3d 5c cd 3c 13 18 f0 bb 99 6f c5 bd
       0.060460374 0.025068397 -0.0073270886 -0.09640426
000050 66 c3 a2 3d d5 33 52 bd 81 3b b3 bc 10 b1 d7 3c
       0.079474255 -0.051318962 -0.02187896 0.026329547
000060 f3 8c 11 3d 63 8f 3d bd f8 88 9c 3d 66 6a 03 3e
       0.03553481 -0.046279322 0.07643312 0.12833557
000070 0d 9a fe bc c2 f0 fc bc 58 63 d9 bc 6e b4 00 bc
       -0.031079317 -0.030876521 -0.026536629 -0.007855518
000080 6f 9c 46 3d 09 16 91 bd 66 d4 86 bd d2 3d 19 bc
       0.04848903 -0.07084281 -0.065834805 -0.009353118
000090 5c 27 5d 3d 6b 1e b3 3d 71 58 80 3d 96 1f 72 bd
       0.053992614 0.08746036 0.06266869 -0.059112154
0000a0 ac bf dd 3d d2 d0 4b 3e 2a 54 88 3c 5e 00 8b bb
       0.10827574 0.19903877 0.016641695 -0.004241987
0000b0 a9 9e ff bd 8d e8 ac 3b c2 70 f9 3c 7d 93 e8 bd
       -0.12481434 0.0052767457 0.030449275 -0.11356256
0000c0 16 89 09 be c0 c0 1b be 58 fe 82 bc b2 72 c7 bb
       -0.134312 -0.15210247 -0.015990421 -0.006086671
0000d0 43 0a 83 bb 04 db 82 bc 13 62 8d 3c fe 03 8a 3b
       -0.003999026 -0.015973575 0.01725868 0.0042119017
0000e0 06 e9 df bd cf fd 5a 3c 44 fc ee bc f5 c5 4b bc
       -0.109331176 0.013366177 -0.029173024 -0.012437333
0000f0 03 fc 05 be 03 8e 14 be c4 54 87 3d 06 92 03 bd
       -0.13084416 -0.14507298 0.06607965 -0.03212168
000100 e1 46 62 3d a7 23 67 3d 60 ee 23 bd 42 f1 d6 3c
       0.055243377 0.056430485 -0.040022254 0.026238088
000110 61 ae 0f 3c 4e 62 9d ba a8 45 ab 3d 85 af 1d 3d
       0.0087696025 -0.0012007446 0.08362895 0.038497467
000120 44 c9 ae 3a 96 a5 0e be 30 64 f2 3c 15 8f 82 bc
       0.0013335128 -0.13930354 0.029588789 -0.015937367
000130 67 5a 01 3d b0 ef 84 3d 38 8e 3f bd 51 6f ae bd
       0.031580355 0.06491029 -0.04676649 -0.08517326
000140 d9 d1 77 3a e8 95 64 3a 83 cd 64 3c c4 a9 44 bb
       0.0009453572 0.00087198475 0.013965013 -0.0030008415
000150 16 d4 e8 bc 95 bb 01 be 3f 68 68 bc 45 75 cb 3c
       -0.028421443 -0.12669213 -0.01418501 0.024836192
000160 56 eb 02 3d e8 1d ef 3a 96 56 8e bd 29 91 cf bc
       0.031962715 0.0018243166 -0.06950109 -0.025337772
000170 ef 8e ef 3c 64 63 33 3c 96 49 e5 bd 24 55 17 3d
       0.02924296 0.01094899 -0.11195676 0.03694643
000180 30 11 52 bd 50 ea 60 bc 17 f3 ad bc 5c 3b 5a bd
       -0.051285923 -0.013727739 -0.021234078 -0.053279266
000190 22 b8 07 be 79 cc 81 bb 0f fc 0f 3e bf 71 b5 3d
       -0.13253835 -0.0039611426 0.14060996 0.08859586
0001a0 41 fe 97 bc 7e 36 de bd 76 60 82 bd 66 c0 0f 3d
       -0.018553855 -0.10850237 -0.06366055 0.035095595
0001b0 ec 71 f9 3b 37 00 3f bd 37 70 e6 bc ad d7 d9 bc
       0.0076124575 -0.046631064 -0.02812968 -0.0265921
0001c0 28 bd 57 3d c8 b6 4e bd 56 e0 2c bd 3a d9 92 3c
       0.052670628 -0.050467283 -0.04220613 0.017925847
0001d0 12 49 cd 3d d6 fb c5 bc ef 36 31 bc 5d 80 30 3d
       0.10023703 -0.024167936 -0.01081632 0.043091167
0001e0 7e 07 1e bd ab 42 51 bd ee 48 63 3c 2c cf 68 38
       -0.038581364 -0.05108897 0.013872368 5.5506054e-05
0001f0 d5 b0 7c 3d 60 47 08 3d 46 45 c9 3d fc ba 3c bd
       0.061692078 0.033271194 0.09827666 -0.04607676
000200 65 7d 3c bd d7 2e 65 3d 92 e1 43 bc 80 94 88 3d
       -0.046018023 0.055952873 -0.011955636 0.06668949
000210 6c a5 48 bc 02 78 cd 3d 26 9f 19 3d 0b 20 08 bd
       -0.012246471 0.10032655 0.03750529 -0.033233684
000220 a6 c0 47 bd b5 8c 59 3d ee 95 89 3d b5 30 80 bd
       -0.04876771 0.053112704 0.0671805 -0.0625929
000230 59 44 dc bd f7 d5 f2 3b f7 99 65 bc f4 ad 65 bb
       -0.10755224 0.0074107605 -0.014013759 -0.003504631
000240 0f 6c b6 bd a9 c8 84 3d b2 6c 3a 3d 0e 48 d2 39
       -0.08907329 0.064835854 0.045513816 0.00040108006
000250 b6 4c 9d bb b6 3e a8 bd ce 5b 22 bd 86 ba 01 3d
       -0.0048004044 -0.08215086 -0.039638333 0.031672023
000260 54 c5 1d 3d 61 43 e3 3b 46 3b 46 3c ec d9 0b be
       0.038518265 0.0069355224 0.012099093 -0.1365735
000270 45 1b d2 bd 3b e7 9e 3c 87 54 10 3d 74 17 d5 3d
       -0.102591075 0.019397369 0.03523686 0.10404864
000280 2c b7 d6 bd 92 da 75 bc d1 e4 c2 3b 47 76 e8 bd
       -0.10484156 -0.0150057245 0.005947687 -0.113506846
000290 67 4c 61 bb dd 62 ba bd eb 28 6e bd a4 dd c9 3c
       -0.0034377815 -0.09100888 -0.05814449 0.02464182
0002a0 48 5c 95 bc b7 3f 1f be ba d3 ac 3d 87 a5 75 3c
       -0.01823248 -0.15551649 0.08438821 0.014993078
0002b0 49 6a 18 3d d9 b8 9e 3d a2 13 a0 bd 32 21 41 be
       0.037210736 0.07750101 -0.07816245 -0.1886032
0002c0 80 eb 6b 3d 0c 62 f5 3d 07 ab a2 3d 83 26 00 bc
       0.057597637 0.119815916 0.07942777 -0.007821682
0002d0 c8 f5 b3 3c 26 93 fc bc bc ff 90 bd 05 42 6e bc
       0.021967784 -0.030831885 -0.070800275 -0.0145421075
0002e0 55 54 c0 ba 89 a4 a3 3c 4e 85 5f bc df f2 14 be
       -0.001467357 0.019975917 -0.013642622 -0.14545773
0002f0 d5 03 ec 3c ce fe 54 3c f3 43 73 bd e2 4f 3d bb
       0.028810421 0.013000203 -0.059390973 -0.0028886725
000300 fe 51 61 bd 6c 65 33 3d a1 fa 80 bd 34 8a a0 3b
       -0.055009834 0.043797895 -0.06297804 0.0048992876
000310 e8 cd 3a bd d9 99 4b bd e4 aa a5 3d f2 fc 3b 3d
       -0.045606524 -0.049707267 0.080892354 0.045895524
000320 6c 03 56 3d 51 02 91 3d df 11 9b 3d 1d 57 be 3d
       0.052249357 0.0708052 0.07571768 0.09293959
000330 5b 35 b6 bb 0b 7d 36 bb 3e 82 d7 bc 9d b2 86 3d
       -0.0055605597 -0.0027845528 -0.026307222 0.065770365
000340 5e 93 0b 3d 67 b1 09 3d 42 2d 30 bb 71 84 e8 3c
       0.034076087 0.03361645 -0.0026882445 0.028383465
000350 d2 81 37 bd 24 27 99 ba b7 7b 4a bc 62 eb 08 3d
       -0.04480154 -0.0011684638 -0.0123585975 0.033427604
000360 d5 f5 f0 3c b3 15 8b 3c 7d 5d 99 bd 79 77 2a 3d
       0.029414097 0.01697812 -0.074885346 0.041617844
000370 47 42 9e 3d a8 43 21 3d 86 d8 7a 3d 50 8e 6a 3d
       0.07727485 0.039371163 0.06124165 0.057264626
000380 35 0a 44 3d bc 59 57 3d 92 4e 01 3d 35 66 6a bc
       0.047861297 0.05257581 0.03156907 -0.014306595
000390 7e 62 85 3d 37 b2 8c bd 10 e4 18 bc e4 57 ee bc
       0.065129265 -0.06869929 -0.009331718 -0.029094644
0003a0 8f 87 b4 bd 2b 60 7b bd 4a 09 76 3d ee f2 d9 3d
       -0.08814918 -0.06137101 0.060067452 0.10642038
0003b0 9b b1 07 3e 1e 31 ab 3d 12 2e b6 bd cf 52 4f bd
       0.13251345 0.08358978 -0.08895506 -0.05061608
0003c0 61 e0 7d 3d 08 1a 88 3d b3 e4 fe bb 59 14 e1 bd
       0.061981563 0.0664559 -0.007778728 -0.10990209
0003d0 5e 04 e6 3c af 68 91 bd 0f a7 b0 bc 9f 37 15 3e
       0.028078254 -0.07100045 -0.021564035 0.14571999
0003e0 79 2f 8c 3d 46 9a ff 3d 24 0f 9b bd 19 af 81 bc
       0.06844992 0.12480597 -0.07571247 -0.015830563
0003f0 8a 90 56 bd cf d9 0e be d5 4f b1 bd ac 57 73 bc
       -0.052383937 -0.13950275 -0.08657805 -0.014852446

fc1.bias f4 [128]
000000 19 67 fd bb 3f c7 65 bd 9e 1d 85 3c 5e ab d9 3c
       -0.0077332375 -0.05609822 0.016249474 0.026570972
000010 61 d4 8e bb ab 10 55 bc 87 47 de 3c cd 68 49 3d
       -0.0043588136 -0.013004462 0.027133716 0.04917221
000020 78 a4 31 3d 8d 60 a1 3d 81 a4 bc bc 64 a8 70 bd
       0.04336974 0.07879744 -0.02302766 -0.05875434
000030 e4 e1 86 bc c6 1f 29 bc 42 29 ca 3c 18 06 2d 3c
       -0.016465135 -0.010322517 0.024677876 0.010560535
000040 70 d3 45 3d 1a 5d 79 3c 7b ca 17 bd 20 f7 45 bd
       0.048297346 0.015219951 -0.037058335 -0.04833138
000050 b4 c5 0d 3d a7 95 7b 3c 1b 60 a7 3d c6 75 08 3d
       0.034612373 0.015355504 0.081726275 0.033315443
000060 5c f3 76 bd c5 89 42 bd 06 87 8a bd 64 ef fa 3c
       -0.06029068 -0.04749467 -0.06764035 0.030631728
000070 11 8b 7a bb b0 e5 d8 3c 71 ae fb 3c c6 9c 14 bc
       -0.0038229863 0.026476711 0.030722829 -0.009070581
000080 b7 7e 5a bc 14 81 53 bc 30 8a 92 3b 7a 99 e1 bc
       -0.013335875 -0.012909193 0.0044720396 -0.027539004
000090 ce 71 df 3c 56 d3 04 3d a9 d5 15 bd be 1b 8e 3d
       0.027275946 0.03242811 -0.036580715 0.06938885
0000a0 fd 7e 71 bd b6 66 a6 bd 74 3c 00 3d fd 06 5e bc
       -0.058958996 -0.08125059 0.031307653 -0.013551471
0000b0 81 81 8c bd 07 f9 2d 3d 18 08 b0 bd a7 6c 97 3d
       -0.068606384 0.04247382 -0.08595294 0.07393771
0000c0 7a e9 c0 3c f6 c4 80 bd 77 72 22 3d 45 1a bc bd
       0.02354883 -0.06287567 0.039659943 -0.09184698
0000d0 05 89 68 3d 3b 2b bc bd 0c 9c 8d bc df 72 37 3d
       0.056771297 -0.09187933 -0.017286323 0.044787284
0000e0 ba ea e7 3c 12 e1 4e bc 11 a6 36 3c 24 85 e9 3c
       0.028310169 -0.012626903 0.011147992 0.02850587
0000f0 e8 1f 1b 3d 53 9b 26 bd 3d 14 99 bc 2a 51 f8 ba
       0.037872225 -0.040675472 -0.018686408 -0.0018945087
000100 f7 31 74 3d 13 24 b0 3d d6 97 7c 3c e8 ff 5d bd
       0.059617963 0.086006306 0.01541706 -0.05419913
000110 dc 0c 58 bc eb 95 0b bd fa 6a ab 3d a8 f7 03 bc
       -0.01318666 -0.03407852 0.083700135 -0.008054651
000120 6f 38 df 3d ed d3 12 bd 99 fa 0f 3d f8 74 2a bc
       0.10899436 -0.03584664 0.035151098 -0.010403864
000130 c1 77 4d 3d a8 c0 48 bd 59 57 94 3c b7 2c 2f b8
       0.050163034 -0.049011856 0.018108057 -4.1764895e-05
000140 9a ed 8f 3d 75 c9 29 bd 3a 86 41 bd 5a 59 8d 3d
       0.07027741 -0.04145189 -0.04724715 0.06901808
000150 ae 89 96 bc 26 c2 0a 3d 04 4e d9 3c 6b 5b 13 bd
       -0.018376198 0.03387656 0.026526459 -0.035975855
000160 c4 5e 03 3d 6f aa bf 3c 69 cf 89 3d ef ca 90 bc
       0.032072797 0.023396699 0.067290135 -0.017674891
000170 02 28 c7 bb 7c 74 a3 bd 9e 36 69 3d 3d 1b 6b 3d
       -0.0060777673 -0.07981202 0.056936853 0.057399023
000180 78 9f ba bc 9c 87 f0 3c a3 3a 2d bc 43 3c dd b9
       -0.022781119 0.029361539 -0.010573062 -0.00042197303
000190 c2 45 d6 bc a9 7f a0 3c 0a 4a e7 bc 65 6b fc bb
       -0.02615631 0.019592123 -0.028233547 -0.007703232
0001a0 61 8c bd bd 64 f5 43 bd d8 17 36 bd ce 24 d1 3d
       -0.09255291 -0.047841445 -0.044456333 0.10212098
0001b0 d8 99 2e 3d 34 63 5b bd 0a c8 96 bc e8 e7 52 bd
       0.042627186 -0.053561404 -0.018405933 -0.051490694
0001c0 d2 e0 c2 bc 18 3a 91 bd 75 8e 34 3d 31 77 4f 3d
       -0.023788843 -0.07091159 0.04408117 0.05065078
0001d0 95 c5 89 bd 34 17 88 3c cb 81 4e bd ed 36 af 3c
       -0.06727139 0.016612627 -0.05041675 0.021388495
0001e0 4f c7 16 3d cb ef 5a 3d fe d3 7f bc 9d 0d 74 3d
       0.03681117 0.05345134 -0.015614508 0.059583295
0001f0 07 24 fc 3c 29 16 4c 3d 8b d3 8b bd 78 f5 da bd
       0.030778898 0.04982582 -0.06827458 -0.10691351

fc2.weight f4 [128, 128]
000000 43 a3 c8 bc d3 8b 4d bd ab 7c f5 3c 8b 09 af 3d
       -0.024491912 -0.050182175 0.029966673 0.08546742
000010 a3 61 a8 3d 0f cc ed bb 53 0b 6e bd b3 ea f3 bc
       0.08221748 -0.0072569917 -0.05811627 -0.029775
000020 e4 6d 1b bd c2 c9 8d bc 1b 70 f7 3c e8 22 84 bd
       -0.037946597 -0.01730812 0.030204823 -0.0645197
000030 7c 84 99 bc a9 1b 8e 3d 58 b6 0b bb 61 1e e4 3c
       -0.018739931 0.069388695 -0.0021318402 0.027846517
000040 cb 74 9e 3d 6d 76 fb bc ac ad 5f bd 78 7c 7d 3d
       0.0773712 -0.030696118 -0.054608986 0.06188628
000050 cf c4 a2 bd 01 5d b3 bd 45 88 40 3d d8 fd 02 3d
       -0.079476945 -0.087579735 0.047004957 0.031980366
000060 bf 06 a0 bd 8a e9 93 bd cb 4f 8b 3c 12 8c 16 3d
       -0.07813787 -0.072222784 0.017005822 0.036754675
000070 1f 3c 1f bd a7 47 8a bd dc c2 ff bc ff 35 78 bd
       -0.038875695 -0.06751948 -0.031220846 -0.06059837
000080 86 e8 29 bd 87 05 da 3b 6a 83 ce 3c b0 00 c1 bc
       -0.041481517 0.006653491 0.025209147 -0.023559898
000090 fc 8f 48 3d f6 24 87 bd 3f 1e 95 3d c7 c7 b1 3c
       0.04896544 -0.065988466 0.072811596 0.021701707
0000a0 ca 5f 9e bd 15 00 5e 3d 78 fe 37 bd ab f1 94 bd
       -0.07733114 0.054199297 -0.044920415 -0.07272657
0000b0 6c 33 43 bd d8 19 69 bc 94 d2 49 3d 3e a0 4b 3d
       -0.04765646 -0.014227353 0.04927309 0.049713366
0000c0 95 5d 2c 3d af 12 1e bd 7d c7 2b bd 44 b7 94 3d
       0.042081434 -0.038592037 -0.041938294 0.07261518
0000d0 d7 36 21 bd d7 f3 a2 3d 54 40 a2 3d 1a 2d 13 3d
       -0.03935894 0.07956665 0.07922426 0.035931684
0000e0 bd 45 4a 3d 5f ae ac 3b a7 af 08 bd 5c 52 32 bd
       0.049382914 0.00526981 -0.03337064 -0.043535575
0000f0 e0 d7 51 3c 85 0e f8 bb 97 c6 36 3d b9 f8 7b 3d
       0.012807816 -0.0075700902 0.044622984 0.061516497
000100 60 8d d3 bc d5 c4 ab 3d 31 39 38 bd c0 87 80 bd
       -0.025824249 0.08387152 -0.044976417 -0.06275892
000110 7c 58 55 bd 95 29 94 bc ca e6 8e bb a2 69 57 bd
       -0.05208634 -0.018086234 -0.0043610083 -0.052590974
000120 3a 7c 6a 3d 63 8b b2 bd 4f f4 0c bd b0 26 d3 3c
       0.057247378 -0.08717992 -0.03441268 0.025775284
000130 d0 d7 69 3d ef ff 9e bd 91 c4 2a 3c 44 43 2e bd
       0.05709058 -0.07763659 0.010422842 -0.04254462
000140 99 f7 26 3d df 5a 59 bd 19 ea 0d bd fd d7 90 bd
       0.04076347 -0.053065177 -0.03464708 -0.070724465
000150 1d 55 be 3c ba e3 6d 3d e4 01 22 bd 3e 58 9f 3d
       0.023233945 0.058078505 -0.039552584 0.07780503
000160 65 66 3a b9 7d c3 a3 bd 64 c4 a6 3d f2 3c 96 3d
       -0.00017776487 -0.07996271 0.08142927 0.07335843
000170 a9 0b 98 3d 54 72 ca 3b 8a 6a 9a bb 8d 2a fe 39
       0.07424099 0.0061781798 -0.0047124075 0.00048478358
000180 85 75 40 bc 41 83 ec 3b d8 b3 0c 3d 66 8b cc bc
       -0.011746769 0.007217795 0.0343512 -0.024968814
000190 80 dc a1 bd 4b dc 97 bd bb 01 36 3d 34 58 dc 3c
       -0.07903385 -0.074150644 0.044435244 0.026897527
0001a0 12 5a 89 bd 3c fe 75 bd 55 3a 0c 3d 6b 7a 9d 3d
       -0.06706633 -0.06005691 0.034235317 0.07689365
0001b0 59 86 70 3d 58 a0 0e 3d cf 5e 95 3c fb 9a 69 bc
       0.058721874 0.034820884 0.018233685 -0.014258142
0001c0 09 af ab 3d fc b7 02 bd e3 8f bb bc e0 c4 54 3d
       0.08382995 -0.031913742 -0.022895759 0.051945567
0001d0 32 ad 42 3c 69 e1 94 3c 3b 6b 1b 3d 27 6c 16 bb
       0.011882113 0.01817389 0.03794406 -0.0022952647
0001e0 96 77 12 3d a3 ed 92 bc e5 42 c9 bc 4e 1b 2e 3d
       0.035758577 -0.01793558 -0.02456803 0.04250651
0001f0 65 ca 27 3d 63 24 99 bd 1f c0 e6 3c 8b 5e a1 bd
       0.040964503 -0.07477643 0.028167782 -0.07879361
000200 32 5c a3 3d 1d fb 88 3d b3 b3 5c 3d 30 80 56 bd
       0.07976569 0.06688521 0.053882312 -0.052368343
000210 ee f9 7a 3c 10 85 92 3d 5d e7 81 bc 80 ef 83 3d
       0.015318377 0.07154286 -0.015857393 0.064421654
000220 68 d1 58 bd ad f6 a2 3d a9 eb 47 3d f0 9f 99 bd
       -0.05293408 0.07957206 0.048808727 -0.07501209
000230 c8 06 2f 3d 80 8a 60 bd 40 30 4e 3d 6f 17 39 bd
       0.042731076 -0.054819584 0.050338984 -0.045188364
000240 5b a3 ed bc 8c 57 d7 3b b2 81 ab 3d 31 a7 86 3c
       -0.029008558 0.0065717157 0.08374347 0.016437145
000250 09 22 92 bd cc 7e 85 bd 23 0f 67 3d 95 44 5e 3d
       -0.07135398 -0.06518325 0.05641092 0.054264624
000260 38 77 1d bd 93 1c 02 3d 45 1e af 3d ad 74 1b 3b
       -0.038443774 0.03176553 0.08550695 0.0023720667
000270 1c a7 91 bd 5b 4e f8 bc 27 69 00 3d d5 9c 44 3d
       -0.07111952 -0.0303108 0.03135028 0.04800113
000280 61 88 3c bd 8b e0 a9 3d 8c 2b c3 3c 05 88 26 bd
       -0.0460285 0.08294781 0.023824476 -0.040657062
000290 c6 e1 9a 3d 66 13 b1 3d d4 9b 74 bd 39 47 7e 3d
       0.07562594 0.08646278 -0.05971892 0.062079642
0002a0 f7 59 2f 3b b3 74 36 bd 21 36 d8 3c e7 88 b0 3d
       0.0026756504 -0.044544887 0.026392998 0.08619862
0002b0 13 a1 89 bd 51 74 20 bc d6 b3 91 bc 70 2e 4c bc
       -0.067201756 -0.009793357 -0.017785948 -0.012462243
0002c0 c7 86 b0 3d db 0f e5 3c 3e 26 7a bc e2 ba 44 bd
       0.08619457 0.027961662 -0.015267907 -0.048029788
0002d0 10 f8 54 3d 96 52 05 3d 19 d7 86 3b 0a 82 07 3d
       0.051994383 0.032549463 0.004114997 0.033083
0002e0 e4 a4 ce 3c 92 58 9b 3b 10 1e 72 bd 26 59 b3 3a
       0.02522511 0.004740783 -0.0591107 0.0013683185
0002f0 4d ac c0 bc fb 34 80 3b 83 c4 1b bd 86 aa df bc
       -0.02351966 0.0039125658 -0.038029205 -0.027302992
000300 6d 4c a8 3d 86 5f 83 bd 80 e6 d1 bc 34 b6 52 3d
       0.08217702 -0.06414704 -0.025622606 0.051443294
000310 aa 4c 85 bc 3e 6b a2 3d aa ac 01 bd c0 3b 6c bc
       -0.016271908 0.07930611 -0.031658806 -0.014418542
000320 85 7c 93 3c 33 28 1b bd 87 b6 30 3d d3 02 64 bc
       0.018003711 -0.037880134 0.04314282 -0.013916689
000330 b3 af 34 3c c8 a5 1a bd 59 e7 4e bd d4 97 9b bd
       0.011028218 -0.037755758 -0.0505136 -0.07597318
000340 c8 d0 94 3d 96 bb 45 3d 81 2e e5 3b b3 1d b5 3b
       0.07266384 0.0482746 0.006994069 0.005527222
000350 0c 4f d1 bb 52 12 e3 bc 61 ed 76 3d e0 64 9b bc
       -0.006387597 -0.027718697 0.060284976 -0.018969
000360 44 14 30 bd 56 40 e5 bc 2e 74 71 3c fd eb 98 bd
       -0.042988077 -0.02798478 0.014737172 -0.07466886
000370 d5 35 9b bb 9d f6 99 3d 70 ab 81 3c a0 71 aa bd
       -0.004736642 0.07517741 0.015828818 -0.083224535
000380 33 b6 80 bd 14 e0 3b bc 7a bd 43 bc ee 4b 19 bd
       -0.06284752 -0.011466999 -0.01194703 -0.037425928
000390 1f d1 8e 3d fb 1b 3a bd a8 4d 0e bd e7 0f d8 3c
       0.069734804 -0.04543684 -0.034742028 0.02637477
0003a0 dd f4 95 3d 38 96 7c 3d 67 b6 4c bd a3 c8 98 3c
       0.073220946 0.061666697 -0.04997864 0.018650359
0003b0 55 36 b4 bd 01 15 2a bd 9a 79 e3 3c e0 99 95 bc
       -0.087994255 -0.041523937 0.027767945 -0.01826185
0003c0 d9 aa a4 3d cf 8b 31 3d df df 36 3d 0b 2a 04 3d
       0.08040399 0.043346222 0.044647094 0.032266658
0003d0 98 b8 3c bd 1f d6 89 bd 10 91 4d bd 54 27 4b bd
       -0.04607448 -0.067302935 -0.05018717 -0.049598053
0003e0 13 dc a2 3b c8 ab b1 bd 19 63 e5 ba 42 c1 89 3d
       0.0049700825 -0.08675343 -0.0017500847 0.06726314
0003f0 b0 79 0d bd 98 7e 57 3d db 43 a7 bd cd b7 9b 3d
       -0.03453988 0.052610964 -0.08167239 0.076034166

fc2.bias f4 [128]
000000 a1 96 a0 bd f1 63 01 bd cd 9f f5 3c c5 37 a9 bc
       -0.0784123 -0.031589452 0.029983426 -0.020656476
000010 c5 95 94 bc a1 ba 40 3d 22 85 5d bd 4f 35 70 bd
       -0.018137822 0.047052983 -0.054082043 -0.05864459
000020 b8 f7 78 bd 42 86 d7 3c 1d bb 47 3c 30 1e 52 bc
       -0.060783118 0.026309136 0.012190607 -0.01282458
000030 2f 72 99 3d 58 5f 53 bc f6 df 8e 3c 76 7b 86 bc
       0.07492482 -0.01290115 0.017440777 -0.016416293
000040 18 ae 54 bd 9c 7d 97 bd 13 06 94 bd 9a d4 88 3d
       -0.05192384 -0.07397005 -0.07227721 0.066811755
000050 63 4d c1 bc 0f e4 10 3d b4 08 a9 bd 20 91 ad bd
       -0.023596471 0.035373744 -0.08253613 -0.08474946
000060 81 df 00 bd 4d f3 63 bd 9e 50 57 bd a8 46 04 bd
       -0.03146315 -0.05565195 -0.052567117 -0.032293946
000070 2f ea db 3c d9 0a 1a 3d 75 64 ef bc aa 90 8c bd
       0.026845066 0.037608 -0.029222706 -0.0686353
000080 44 0b cb 3c db c7 0d bd d5 22 62 bb 2c 29 9f 3d
       0.024785645 -0.034614425 -0.0034505625 0.07771525
000090 27 b1 00 3d db 7a 92 bd 3c 32 4f bd 12 b8 98 3d
       0.031418946 -0.07152339 -0.050585017 0.074569836
0000a0 66 20 82 bc 0c 6f af bc 50 55 36 bc 02 4d 78 3b
       -0.01588459 -0.021415256 -0.0111287385 0.0037887697
0000b0 cc 06 ac 3d c3 3c 80 bd ba f8 5f 3c 47 6c ac bd
       0.08399734 -0.062615894 0.013670141 -0.0841909
0000c0 8d 21 8f bd 7c 7f 97 bd 37 eb 83 bd e2 a7 b4 3d
       -0.06988821 -0.073973626 -0.06441348 0.088210836
0000d0 f4 1a cf bb ee c7 4f bb 66 da 00 bd c8 6c 57 bd
       -0.0063203517 -0.003170486 -0.03145828 -0.052593976
0000e0 ff 9a 96 3a 94 b5 34 bd 76 ec 95 bd 7d 49 23 bd
       0.0011490284 -0.04411848 -0.07320492 -0.039865006
0000f0 96 0a 82 38 fe 29 1c 3d f6 99 6e bc 09 82 e0 bc
       6.200855e-05 0.038125984 -0.014563074 -0.027405756
000100 d5 ed a0 bd a8 ab f3 3c 83 1b d2 3c 8a e7 b2 bd
       -0.07857863 0.029744938 0.025647884 -0.08735569
000110 2c 6f ad 3d e6 93 7c 3d b7 ed 3a 3c 6a c0 9d bd
       0.0846847 0.061664484 0.011409215 -0.07702716
000120 f9 e5 85 bc 2d d6 44 bd 0b 1e 85 3d db 44 0d bd
       -0.016345011 -0.048055816 0.06499871 -0.034489494
000130 38 65 83 3d 78 0e d3 3b fb 81 58 bd ee 60 8d 3d
       0.0641579 0.006440934 -0.052858334 0.069032535
000140 a0 e0 a7 3c 6e 00 8d bc c8 69 41 bc 44 da a2 bc
       0.020492852 -0.017212119 -0.011805005 -0.019879468
000150 47 6d 86 bd 4d 13 a1 bd 84 b4 5e 3c bd 41 5d bd
       -0.06563812 -0.078650095 0.013592843 -0.05401777
000160 7a b7 2e bd 83 9d a3 3c 33 fc 23 bd 3a cd 72 3d
       -0.042655446 0.019972568 -0.040035438 0.05927775
000170 c6 1c 58 bd e3 11 6e bb 81 33 53 bd 45 cc 04 bd
       -0.052761815 -0.003632658 -0.05156279 -0.03242137
000180 0f 75 1a 3d 6b 96 c1 3c ec ac 7a bd d5 09 42 bd
       0.037709292 0.023631295 -0.061200067 -0.047372658
000190 a0 d1 8d 3d a3 6c 23 bc f3 d2 0b 3d 87 24 8e bd
       0.069247484 -0.0099746315 0.034136724 -0.06940561
0001a0 a3 91 01 3d f5 6a 97 3d b8 23 18 bd af f6 d4 3c
       0.03163303 0.07393447 -0.03714344 0.025996534
0001b0 2f 5c a7 bd c3 e3 a9 3d 04 32 98 3d f6 e6 99 bd
       -0.081718795 0.08295395 0.07431415 -0.075147554
0001c0 59 9e b9 3c 04 d3 59 3d 6d e9 99 bd bd e4 6e 3d
       0.022658514 0.053179756 -0.075152256 0.05832361
0001d0 cb 85 68 3d 9f 26 94 3d a1 90 19 bd bc 8b 2e bd
       0.05676822 0.07233929 -0.037491444 -0.04261373
0001e0 49 15 93 3d 36 ab b1 3d 15 04 71 3d c8 95 01 3d
       0.07181794 0.08675234 0.058841784 0.031636983
0001f0 7c a9 93 bd 17 8a c9 bc 05 da 22 bd cd 13 99 3d
       -0.07210061 -0.02460198 -0.0397587 0.0747448

fc3.weight f4 [10, 128]
000000 87 32 3f be fc 44 8e bd 5f b0 65 3c 56 d2 a3 bd
       -0.18671618 -0.069467515 0.014019101 -0.07999103
000010 40 d1 06 be 67 58 af bd 6f c6 b4 bd 88 14 53 be
       -0.1316576 -0.08561783 -0.08826911 -0.20613301
000020 bd ff 80 3c 42 e1 52 bd ac d1 24 be 96 8d 05 be
       0.015746946 -0.051484354 -0.16095608 -0.13042292
000030 02 f5 a4 3c 0c dc 9e 39 9a 80 b4 3c b9 58 41 be
       0.02013636 0.00030300056 0.022033978 -0.18881501
000040 a3 2e 71 be a6 e8 38 be f1 ed 8c be 00 34 87 be
       -0.23552947 -0.18057498 -0.27525285 -0.2640686
000050 d2 fb 53 3c 89 23 73 3d 07 c8 39 be cb d2 0c 3e
       0.012938457 0.05936006 -0.1814271 0.13752286
000060 4d e0 74 3d d7 59 68 be a1 b4 09 bd 98 c3 76 3d
       0.059784222 -0.22690521 -0.033619527 0.060245126
000070 6d ed 2d 3e 9f ea f8 b9 3c 61 22 3d c3 9c 31 be
       0.16985102 -0.00047477052 0.03964351 -0.17344956
000080 7c ba da bd da 36 48 be df 43 3f 3e 4c 8b 96 bd
       -0.106801 -0.19552174 0.18678235 -0.073507875
000090 60 21 8c 3c 28 c6 72 be 4b ab 08 be 59 c7 ab bd
       0.017105758 -0.23708403 -0.13346593 -0.08387632
0000a0 76 a2 66 be 88 bb f2 3c d0 f9 6a 3e 06 7d 45 bd
       -0.22522911 0.029630437 0.22946858 -0.048214935
0000b0 6a 19 ab bd 03 18 1f 3d 15 dd 88 be 41 ff 90 3d
       -0.08354457 0.03884126 -0.26731172 0.07079936
0000c0 e0 d2 b7 3d dc a9 6f 3d 77 ea 0f bd 34 24 93 bd
       0.08975768 0.0585116 -0.035135712 -0.071846396
0000d0 aa 9a a6 3d 89 bf b2 3d 03 12 24 be f8 0a 8e 3d
       0.081349686 0.08727939 -0.16022496 0.06935686
0000e0 2a 07 d1 bd ff 81 74 be 5a 61 58 bd cf fc 33 3d
       -0.102064446 -0.23877715 -0.052827217 0.04394227
0000f0 92 5a ba 3d 46 f3 e0 3c e3 1c 08 be a9 ff e6 bd
       0.09099306 0.027459752 -0.1329227 -0.11279232
000100 6c 1b 82 3d a3 3c a9 3d 6c 80 8a 3e 60 3f 9d be
       0.063528866 0.08263519 0.27051103 -0.30712414
000110 3b 48 10 3c 69 b0 79 3d b4 54 12 3d 6e 7c 05 3d
       0.008806284 0.060959253 0.03572531 0.03258937
000120 ac 97 03 3d 8d d8 5f 3d 20 89 21 3d ae 40 94 be
       0.032127067 0.05464988 0.039437413 -0.28955597
000130 df f4 5c bd 2b 67 4b 3d c9 c0 93 bc bb ff 1f be
       -0.053944465 0.049658936 -0.018036263 -0.15624897
000140 e7 61 88 bd b8 cc 3e be 7e 95 76 3d 57 61 7e 3c
       -0.066592984 -0.18632782 0.06020116 0.015526137
000150 9d 65 08 3d d2 3a 95 3d f7 9b 91 3c 12 3e 90 3c
       0.03330003 0.0728661 0.017774565 0.017607722
000160 a2 ca 5f be 2f 37 1b 3d d3 55 98 bd 1b b9 e6 bb
       -0.21854642 0.037894424 -0.07438245 -0.0070411093
000170 13 21 8a be 3d 8b 90 bd 11 92 a2 3c 4e d3 1b bd
       -0.2697836 -0.070578076 0.01984504 -0.038043313
000180 be 4e 51 3d 3d e8 b7 3d 5e f3 38 3d bf c9 15 3d
       0.051100485 0.08979843 0.045153968 0.036569353
000190 2a 42 18 3e 06 1d 20 be 02 60 f5 3d ca 7b 9d bb
       0.1486899 -0.15636072 0.11981203 -0.0048060166
0001a0 77 d1 f4 bd 7a a4 22 bc 76 7b 5d 3d 3e 99 94 3d
       -0.11954015 -0.00992691 0.05407282 0.07255791
0001b0 ec 43 49 bd d2 0a 77 be 63 a7 8c 3d 45 53 52 be
       -0.04913704 -0.24125221 0.06867864 -0.20539577
0001c0 de ee 37 be e3 b7 fd 3c 71 8a d0 bd 4b 5a c2 3b
       -0.17962214 0.030971473 -0.101826556 0.005931174
0001d0 19 6a 1e be a6 3a 0a bd 75 ec 54 be 75 43 36 3d
       -0.1547016 -0.033747338 -0.20793326 0.044497926
0001e0 11 1f c3 3c 85 27 19 be 48 ce 32 3d 6b a7 db 3c
       0.023818525 -0.14956482 0.043653756 0.02681323
0001f0 27 b0 69 be 16 e0 50 be f9 8f 1c 3d 97 cd 18 bd
       -0.22821103 -0.20397982 0.03822324 -0.03730544
000200 23 01 26 3d 94 0d e3 bc e4 d3 13 bd 35 9f 28 be
       0.040528428 -0.027716435 -0.036090747 -0.16466983
000210 ac 9d a8 bb 0f 94 9f bd 3b 00 57 3d 8a 7f 34 3d
       -0.005145749 -0.07791912 0.052490454 0.044066943
000220 4d f8 f9 bc 50 e1 e4 3d 65 5d 2d bd 3c e4 6a 3d
       -0.030513907 0.111757874 -0.042325396 0.057346568
000230 ef 49 51 be eb 34 d3 bd 3b e5 5e bd 58 bc a1 be
       -0.2043836 -0.10312828 -0.05441783 -0.31589007
000240 6f 55 e1 3a 0b 31 a1 3d 2b 9e 4e 3d b7 12 21 be
       0.0017191599 0.07870682 0.05044381 -0.15729795
000250 1c 05 52 be 36 d4 50 bc ed ee 34 3d be 80 30 bd
       -0.20509762 -0.0127459075 0.04417317 -0.043091528
000260 dc ab e3 3c b5 b5 13 3e 45 d3 5f bd 4d 54 f6 bd
       0.02779191 0.14424784 -0.05464484 -0.12027798
000270 0a 17 f5 be 4d 6e a4 be ba ab 9c bc 06 ed da bd
       -0.4786914 -0.32115403 -0.019124854 -0.1068974
000280 5e 67 97 3d 9a 67 04 be 31 97 97 bd 70 9c 27 3c
       0.073927626 -0.12930146 -0.07401884 0.010230169
000290 b8 d0 81 be 3f 26 dd bd 16 c9 38 bd f3 1e 52 3d
       -0.25354552 -0.107983105 -0.045113645 0.051299047
0002a0 7e df 87 3d 22 38 60 be fb 56 37 bd 9a b3 4a be
       0.066344246 -0.21896413 -0.044760685 -0.19795075
0002b0 ff 61 8a bd ca d4 ec bd 24 25 ac bd d5 1a 87 3d
       -0.067569725 -0.11564024 -0.084055215 0.06596915
0002c0 55 5c 61 bb 78 8e 21 bd b0 ff 9e 3d f8 b3 20 be
       -0.003438731 -0.03944251 0.07763612 -0.15693653
0002d0 4d 72 b3 bd 2e 65 62 be 26 51 0c bb c4 ef c2 bd
       -0.087620355 -0.2210891 -0.0021410673 -0.09518388
0002e0 bd e0 00 3e 6b 4e ff bd d5 0d 55 bc bb 34 84 3d
       0.12585731 -0.12466129 -0.013003786 0.0645537
0002f0 d5 a2 ea 3d b4 ca 36 3d e3 88 68 3d 51 29 93 be
       0.11456839 0.044626907 0.05677117 -0.2874246
000300 6a 18 71 bd 2e 86 88 3d bb 21 0c 3e a1 4a 02 3d
       -0.058861174 0.06666218 0.13684742 0.031809453
000310 4a 70 a9 be eb 66 0f 3d 11 0b fc bc 11 32 d5 3d
       -0.33093482 0.03501026 -0.030766996 0.1040994
000320 a2 1c 7f 3d 4c 69 6e be f2 3b ba 3d ad b5 19 be
       0.062283166 -0.23282355 0.09093465 -0.1501071
000330 55 d1 93 be f2 b4 12 be e7 c2 32 be 62 d8 fc 3d
       -0.28870645 -0.14326838 -0.17457162 0.12345959
000340 7c 12 50 3d f1 6e 1a be c1 32 9e be 95 f4 82 bd
       0.050798878 -0.15081383 -0.30898097 -0.063943066
000350 fb ab 9d be 78 ee e2 3d 19 df 08 3e 18 1e 40 be
       -0.30795273 0.110806406 0.13366355 -0.1876148
000360 44 8e 89 bc 2b bd c4 3d 6f 8b a3 3d f8 db b3 3d
       -0.01679147 0.096063934 0.07985579 0.0878219
000370 24 91 bd 3d 70 73 3e be 30 a0 c1 bd 83 d5 b0 3d
       0.09256199 -0.18598723 -0.094543815 0.08634474
000380 f2 11 e9 3d c9 b0 3d 3e 71 35 6a 3c 90 46 81 3d
       0.11380376 0.1852447 0.014294968 0.06312287
000390 a0 3c 72 be c4 d1 0f 3e db ae 09 3e 45 6b 00 3d
       -0.23655939 0.14044863 0.13445608 0.0313523
0003a0 76 93 23 be 27 d1 2d be f5 89 5f 3e 35 86 ef 3d
       -0.1597422 -0.16974317 0.2182997 0.1169552
0003b0 6f b6 b9 be 55 01 94 3d f6 ee d0 bd 96 f6 04 be
       -0.36271998 0.072268166 -0.10201828 -0.1298469
0003c0 6f 5b 2c bd df 92 70 bc 03 c2 74 3d 7e 53 cd 3d
       -0.042079385 -0.014683454 0.059755336 0.100256905
0003d0 32 be 20 be 84 3d 23 3c c3 4d b3 3c b5 3a 3b be
       -0.15697554 0.009963397 0.021887666 -0.18284114
0003e0 5d 2c 9c 3d f6 7a 70 3d 08 18 9d 3d 0b 74 01 3e
       0.07625649 0.058711015 0.07670599 0.12641923
0003f0 bc e3 01 bd 1a b6 b2 3c f5 13 1d be 79 b1 4f be
       -0.031711325 0.021815348 -0.15339644 -0.20282544

fc3.bias f4 [10]
000000 a7 f9 f4 bb 34 d5 f4 3d 36 32 a1 3b d4 1c df bc
       -0.00747605 0.11954728 0.0049193157 -0.027235426
000010 c2 e4 7d bd e3 f8 ee 3d c1 35 7a bd 04 48 50 3d
       -0.06198574 0.11668565 -0.06108642 0.05084993
000020 eb 25 84 3d 8d bd b7 3d
       0.06452545 0.08971701
