models/checkpoint.pth (torch, 291017 bytes, 10 tensors)

conv1.weight f4 [16, 1, 5, 5]
00000000: 3a5a c1bd f0e7 7dbd c68c 73bd bb7e 123e
00000010: 7d51 703e a271 843e f28b 9e3e dd4f af3e
00000020: e45d ae3e f3d1 6f3e 65f2 8a3d 76e1 dcbc
00000030: 2dc2 56be 3503 09be 1128 bf3d 7fa1 09be
00000040: 6a7e d1bd 531a d23c 7e63 92be 2362 bc3c
00000050: 3e3e 28be 6ef0 79bc 2c6c 82be b190 3fbe
00000060: ed56 35be 5961 f9bd e99f 783e a2aa be3e
00000070: 7afd c23d cc36 8dbe 9d80 803e bc80 cd3e
00000080: 037c 423e e964 33be 1c41 a9be 4f3b e93e
00000090: fb42 353e 5a45 053e b569 97be c880 4ebe
000000a0: 2e19 9b3e c0c3 9f3c 37d6 91bd f6d9 27bd
000000b0: e2e4 b2be 96a7 873e 1d4b 393e bb00 523d
000000c0: 2c14 1fbe e3f8 5bbe 32cf 4cbe b453 113e
000000d0: f8ae 09bd e951 9c3d 6cac 59bd de45 41bd
000000e0: 0100 43be 8c77 86bd e4ab 213e 4833 3cbe
000000f0: 611d 4e3d 2ac5 63be f899 da3d 5b5b 85bc
00000100: b190 7ebe 0df1 313e 97d9 593d 73d1 dcbd
00000110: 03d9 273c 7249 b6be 2647 78bc 8eb8 3f3e
00000120: 92c2 d93e 1274 8c3d aed6 6ebe d6f2 11bd
00000130: e0ec de3d 6014 c93e 48a6 c83e a000 a23e
00000140: 4098 843e 30d4 ac3e e8b4 c43e acf4 d93c
00000150: bfb3 57be 95c0 313e f308 8e3e 48d8 1c3e
00000160: ac80 f0bc 7974 94be 4d03 03be 6fdc a63d
00000170: 3c42 4bbe 5376 aebe 5a47 afbe a264 1c3e
00000180: ba81 2abe 0723 a7be 6be0 d93a a7d4 6bbe
00000190: ff67 92bd e03f e5bc bdaa 97bc 1f43 e3bd
000001a0: d3f1 5abd e822 c0bc 78f4 1fbe a144 a0be
000001b0: 5dbe 04bd 8f8a 4bbe e036 92bd e08c d0bd
000001c0: 0438 16be f734 98be bb91 4abe fb61 8d3e
000001d0: 0f7d 383e 07a5 b0bd f386 d73d 4493 3abc
000001e0: a7a0 873d 4eb6 9d3e 9f2d 863e eaa6 a03e
000001f0: 85d4 1f3e fce3 3a3d 7ba4 f43d 1529 bcbc
00000200: 8e7a 333e ec9c 2cbd e4df a9bc 50e0 ba3e
00000210: 4bc2 be3e 5fd9 4f3e 9328 d0bd 55cd e43e
00000220: 5c31 803e e46b 19be 0492 fbbd 9cbb f5bc
00000230: 8206 7c3d c2ac 66bd d321 dabd d483 52be
00000240: c603 a1be f642 b93c 13a1 85be 712f adbe
00000250: 88d3 93be 05d9 aebc 165c 6abd 4c66 e83d
00000260: 9978 683e 23ee 923e c577 8e3e f4c5 063e
00000270: 2ffe 1f3e 37ad 6d3d 2eb4 bfbd 9820 453e
00000280: b9d1 eabc 1a08 fa3a c4e1 02bd 2254 113d
00000290: 63f3 6bbd fd15 3e3d d703 8fbe 84ac 53be
000002a0: d57d a43c cf1f 3dbe f834 8abe d8b3 4e3c
000002b0: ee84 87be 31b7 0abe 3d1a d93c 139d 7d3e
000002c0: 08c7 873d 7901 1fbd c94c 313d 1dde bfbd
000002d0: 0940 833e 0010 0e3e 58bf babe 9fb3 5fbe
000002e0: 0b64 c0bd 4f33 913e 050f 8f3e e8ae 0b3e
000002f0: 59ef 92be 1acc 6a3c 1ae9 943d 8492 ca3e
00000300: 946e cc3e 04e8 953e b267 5b3c 0a89 56be
00000310: 3ca0 8dbd 139c 4c3e 01aa 823e 6d04 803c
00000320: 8de1 b2bd 5bd1 7fbe bfe1 8dbe 5606 1c3d
00000330: c767 89bc a29a 42bd 8046 7c3e d56e 923e
00000340: ab17 963e cdf3 483e 649b 083e ccc6 5a3e
00000350: ff32 b23e 70b8 a6bd a533 453e c84d ff3d
00000360: ffbc d6bd f1b4 bdbd 0ca8 afbd c14a 59be
00000370: 23e7 2fbd 5153 f9bd 96eb 9fbe d21b 65be
00000380: 2edc b83d 3d07 33bc f272 b03d b09c 3cbc
00000390: 53cd 4a3e 7d92 26bd 69f3 4dbe 407f b6bd
000003a0: 6087 ae3e a6be 1b3c f442 96be c372 803d
000003b0: daf7 c13d 4c85 e93e e300 04bd 0a1d a4be
000003c0: 737e afbe f84a 5d3d def4 a23e 640d 8d3e
000003d0: 0bc2 8bbe b611 adbe 9a8c f93c 93ee 203d
000003e0: c2c0 163e 54d1 bc3d 63b2 0cbe 3d6c 423e
000003f0: da92 353e 6bf9 bb3e d7cf 833e 06c1 4fbe
-0.094410375 -0.06198877 -0.059460424 0.14306156 0.23468585 0.25867945 0.30966145 0.34240618
0.34056008 0.23419933 0.06784514 -0.026962977 -0.2097251 -0.1338013 0.09333814 -0.13440512
-0.1022919 0.025647318 -0.28591532 0.022996014 -0.16429994 -0.015255077 -0.25473154 -0.18707539
-0.17708941 -0.12176771 0.24279751 0.37239558 0.09521003 -0.2758087 0.25098124 0.4013728
0.18992619 -0.17518963 -0.33057487 0.4555306 0.17701332 0.13014737 -0.29572836 -0.20166314
0.30292648 0.01950252 -0.07120936 -0.040979348 -0.3494025 0.26495045 0.1809506 0.051270228
-0.15535039 -0.21481661 -0.20000914 0.14192086 -0.03361413 0.076328106 -0.05314295 -0.04718577
-0.1904297 -0.065657705 0.15788227 -0.18378937 0.050320987 -0.22243181 0.106738985 -0.016278913
-0.24859883 0.1737711 0.053186025 -0.10782137 0.010244611 -0.3560291 -0.015153682 0.18722746
0.42531258 0.06858076 -0.23324081 -0.035631977 0.10885024 0.39273357 0.39189363 0.31641102
0.25897408 0.33755636 0.3841927 0.026605926 -0.21064661 0.1735862 0.27741203 0.1531688
-0.02935823 -0.28995112 -0.12794228 0.08147513 -0.19849485 -0.3407465 -0.34234124 0.15272763
-0.1665105 -0.3264391 0.0016622668 -0.23030339 -0.07148742 -0.02798456 -0.018514032 -0.11096787
-0.053453278 -0.023454145 -0.15620601 -0.3130236 -0.032408107 -0.19877075 -0.07139373 -0.1018312
-0.14669806 -0.2972791 -0.19782154 0.27613816 0.18016456 -0.086252265 0.105237864 -0.01138765
0.06622439 0.3080315 0.2620668 0.31377345 0.15608414 0.04562758 0.11945435 -0.022968808
0.1752722 -0.04214184 -0.020736642 0.36499262 0.3725761 0.20297764 -0.10163989 0.44687906
0.25037658 -0.14982563 -0.1228371 -0.029996686 0.061529644 -0.0563171 -0.10650983 -0.20558101
-0.3144819 0.022614937 -0.26099452 -0.33825257 -0.28872323 -0.021343717 -0.057216726 0.113476366
0.22702254 0.2869731 0.27825752 0.1316145 0.15624307 0.05802652 -0.093605384 0.19250715
-0.028664457 0.0019075901 -0.031953588 0.035480626 -0.05760516 0.04640769 -0.27932617 -0.20671278
0.020079533 -0.18469165 -0.26993537 0.01261612 -0.26468605 -0.13546444 0.02650177 0.2476695
0.06629759 -0.038819764 0.04328612 -0.093685366 0.25634792 0.13873291 -0.3647411 -0.21845864
-0.09394082 0.28359458 0.27941146 0.1364094 -0.28698233 0.014330888 0.07271023 0.39564908
0.39928114 0.29278576 0.013391422 -0.20950714 -0.06915328 0.19981413 0.25520328 0.01562711
-0.08734427 -0.24982207 -0.27711293 0.03809198 -0.016773118 -0.04751075 0.24636269 0.28600183
0.29314932 0.19624253 0.13340527 0.21364897 0.34804532 -0.081406474 0.19257982 0.124660075
-0.10485267 -0.092630275 -0.08576974 -0.21219923 -0.04294504 -0.121740945 -0.31234425 -0.22373894
0.09026371 -0.010927019 0.08615674 -0.011511967 0.19804887 -0.040667046 -0.20112385 -0.0891099
0.34087658 0.009505903 -0.29347956 0.06271889 0.09471102 0.4560951 -0.03222741 -0.32053405
-0.3427616 0.054026574 0.31827444 0.2754928 -0.2729648 -0.33802575 0.030462552 0.039290022
0.14721969 0.09219614 -0.13739924 0.18986602 0.177318 0.36713728 0.25744507 -0.20288476

conv1.bias f4 [16]
00000000: 02a1 203e cf13 9f3b cd4c 3d3e 5588 bc3d
00000010: 85ca c83d 8858 033e df25 483e e92c f93d
00000020: 8c46 4b3e d9e8 afbc 31ae f7bd 623d a83d
00000030: 3c7b 923d 2a59 a2bd 44e5 ca3c 1ce2 1a3e
0.1568642 0.0048546563 0.18486328 0.09205691 0.098042525 0.1282674 0.19545697 0.12166769
0.1985113 -0.021473335 -0.12093771 0.08214833 0.07152411 -0.07927163 0.024767525 0.15125316

conv2.weight f4 [16, 16, 3, 3]
00000000: b06e e9bc 090b c6bd 65f1 bebd d048 11be
00000010: ed00 21be b269 86bd 0392 84bd b667 b7bd
00000020: 7682 f0bc 313c 473e e36c 8d3d 65c5 3cbd
00000030: 9046 d43d 6e0f 943d 4290 1cbe 2e61 0b3e
00000040: bd6f ed3b 53e0 bfbd 8115 b03c 5083 c73c
00000050: 41ad 4bbd e252 5fbc 856b 8b3d 872e 483d
00000060: 2987 00bd c420 9dbc 66a2 673d 6e7b 2b3e
00000070: 763b 9eba d3b1 31bd 3977 ca3d 675a 28bd
00000080: fcc1 e3bd ae61 003e 5730 79bc b000 403a
00000090: 9f0f 3a3d d214 7bbd 751f 09bd 7069 453d
000000a0: a2b7 8cbc 1b1f 8d3c 509e cd3d b8b9 b03c
000000b0: de69 283b 8337 073e 2cf9 bd3d 0bcc c8bd
000000c0: c6a2 e6bb de94 09bd 12cd a9bd 20be 31bd
000000d0: eff7 813d 244d 183d c26b eebb 9fa0 11bc
000000e0: 664e 6f3d b265 00be dec1 a2bc 6781 4ebd
000000f0: df60 49bc 4871 86bd 5fbe 643d 0051 173d
00000100: 8d0a 9e3d a2b6 d7bd e6f3 0a3e 104a d93c
00000110: d839 9cbd 96be 0d3e 55b6 e83d 2782 e93b
00000120: 779f 83bd fe6b 9abc 8e57 ec3c 89ab 30be
00000130: 72f7 35be e163 f1bd 45ae 2e3c c899 f6bd
00000140: b834 a9bd 8109 ad3d 3caf 13be 284f 43bd
00000150: b06a 05bd 9957 f9bd e3d7 f13d 24f2 adbd
00000160: 10ff 3dbe 6529 603c 656e 6bbc 0013 143c
00000170: 7bd8 7b3d 1116 923d 442b 543c 9848 9e3d
00000180: 4a58 19bd 9303 713d 3805 5d3d d02b 3b3d
00000190: 3c92 9f3d dfc7 363d 1e2c f33c 066a 843d
000001a0: 9cd9 5a3c db3c 6abd 13d4 9f3d 8f8d c73c
000001b0: b0ed c8bd 51cc 733d e29f a1bd 15a8 2f3c
000001c0: 0e71 db3c b49f 2bbe 536f 8d3d 9bd5 2abd
000001d0: 126c 66bd cf4f e8bc f3dc 203c 4d39 893c
000001e0: 2eef ed3c 9d5f ab3c 62c6 ad3d 02da 463d
000001f0: 5853 46bb 3937 293d b9c6 50bd e5f4 373c
00000200: 00a0 2e3d 531b 6fbc e288 313d d6fc cebd
00000210: 04f2 943c ccf8 e53d 9657 46bd 2e8e 3b3c
00000220: 0f2a 76bd 0b50 5c3d 0ac3 a2bd f593 82bd
00000230: 5e4c afbd 0b16 f13c 1c44 05be fead 99bd
00000240: b399 96bd 14d7 94bd 6eca 10bd 5ac7 44be
00000250: 1c30 17be ffa3 31be f797 eebc f301 cebd
00000260: 2a4b 393d 41c4 5b3d 4285 473e 3fa9 1a3e
00000270: 03b9 21ba 1380 693e 4347 313e 5697 1e3e
00000280: 2299 1f3e db75 52bc 4850 a9bd aa60 913d
00000290: 5d97 2abd 44da 393d e548 1abd 57e5 9fbd
000002a0: 3e0b b53d 81d3 21bc fc7a 8fbd bfc8 3fbd
000002b0: 404f 623d d3f0 2c3e ccfb 14bc 979d 323d
000002c0: 5ada f3bc 3a9a 8f3d 024c 0c3e 36d3 51bd
000002d0: ecc6 473a fb41 1a3c 6e64 9a3d a411 f5bd
000002e0: a0f5 8bba 322f 603d 7215 e6bd 1726 e13c
000002f0: c1e0 abbd bfae c7bd ea67 663d c1d1 033d
00000300: b0ba 20be d06a 343b a2e2 a33d 5da0 83bd
00000310: 766a 803d cce3 d73d fcd4 833d 46dc d539
00000320: bd8d 9ebd 275f cabd d7d5 b4bd 25aa f7bd
00000330: a574 18bd 2707 01bd b07e adbd a75e 73be
00000340: dc66 f63b 2996 09bd bf21 69be b9c2 423d
00000350: 7bbf dcbb 8fa0 4bbd 0de0 7c3d 7386 7abd
00000360: 1929 00be 5013 b3bd 0902 aebd 6a8f 2bbe
00000370: 8362 87bd d8ec 65bd 4894 863d 242d 98bd
00000380: 0020 cfbd 1091 2e3e e859 353e 0af4 c1bd
00000390: 4745 083e c1fc 013e b39e 29be 004b 893c
000003a0: b3fe 4d3c 55bc 42bd 694b 7e3d 63e5 18be
000003b0: 86a6 223d cba9 a1bd 9837 2fbd 714c 8fbd
000003c0: afd4 c23c 36d1 b1bd 9dc2 e9bb 129b 883d
000003d0: 76d0 6dbd 4ca3 2a3d 88e6 6abd 766d 60bc
000003e0: aa28 893c d147 663c 1e8e 753d dfde 0a3c
000003f0: 3e3d 1fbe b1b0 d5bd b65b 133d 0827 20be
-0.028495163 -0.096700735 -0.09323386 -0.14187932 -0.1572301 -0.065631285 -0.06473162 -0.08955328
-0.029359084 0.19456555 0.06905534 -0.046086688 0.10365021 0.072295055 -0.15289405 0.1361129
0.0072459863 -0.09368958 0.021494629 0.024354607 -0.049725775 -0.013630601 0.06807617 0.048872497
-0.0313789 -0.019180663 0.05655136 0.16746303 -0.0012072164 -0.043382477 0.09886021 -0.04110184
-0.11120984 0.12537262 -0.015209279 0.0007324321 0.045425054 -0.061299153 -0.033477265 0.048196256
-0.017177407 0.017226746 0.10039961 0.021572933 0.0025697867 0.1320477 0.092760414 -0.09804543
-0.007038447 -0.033589236 -0.08291067 -0.043394208 0.06346118 0.037182942 -0.0072760293 -0.008888393
0.058424376 -0.12538794 -0.019867834 -0.050416376 -0.012291162 -0.065645754 0.055845615 0.036942482
0.07716856 -0.10532881 0.13569602 0.026524574 -0.0762822 0.13842234 0.11362902 0.007126111
-0.064269 -0.018850323 0.028850343 -0.17252935 -0.17770174 -0.117866285 0.010661666 -0.1204105
-0.082620084 0.08449078 -0.14422315 -0.04768291 -0.03257245 -0.12174911 0.11808755 -0.0849345
-0.1855433 0.013681744 -0.014369582 0.009037733 0.06148575 0.07133115 0.012949768 0.0772869
-0.037437715 0.0588413 0.053960055 0.04569608 0.07791564 0.044624206 0.029684123 0.06465535
0.013357546 -0.057186943 0.07804122 0.024359493 -0.0981096 0.059521023 -0.07891823 0.010721226
0.026787307 -0.1676014 0.06905999 -0.041707616 -0.056255408 -0.028358368 0.009818303 0.016750956
0.029044714 0.020919615 0.08485104 0.048547752 -0.003026208 0.04131243 -0.050970767 0.011227821
0.042633057 -0.014593917 0.043343432 -0.101068184 0.018181808 0.11229095 -0.048423372 0.0114474725
-0.060098704 0.053787272 -0.07947357 -0.06375877 -0.08559488 0.029429456 -0.13014263 -0.075038895
-0.073535345 -0.072675854 -0.035349302 -0.19216672 -0.14764446 -0.17347716 -0.029125197 -0.100589655
0.045237698 0.05365396 0.19484428 0.15103625 -0.00061692315 0.22802763 0.1731234 0.15487418
0.1558576 -0.012845482 -0.082672656 0.07098515 -0.041648258 0.04537417 -0.037667174 -0.07807415
0.08840035 -0.009877087 -0.07005879 -0.046822306 0.05525136 0.16888742 -0.009093236 0.04360732
-0.029767204 0.07011838 0.1370087 -0.051226817 0.0007620889 0.009415145 0.07538687 -0.11966255
-0.001067806 0.05473251 -0.11234559 0.027483983 -0.08392478 -0.09750127 0.056251444 0.03218246
-0.15696216 0.0027529486 0.08002211 -0.06427071 0.06270306 0.10541496 0.06437108 0.00040790642
-0.07741878 -0.0988143 -0.08829849 -0.12092999 -0.037220616 -0.03150096 -0.08471429 -0.23766576
0.007519586 -0.03359047 -0.2276678 0.047548983 -0.0067366934 -0.049713667 0.06173711 -0.061163377
-0.12515678 -0.08743918 -0.08496482 -0.16753927 -0.066105865 -0.056134075 0.06571251 -0.07430485
-0.101135254 0.17047524 0.17710078 -0.09470375 0.13307677 0.12694074 -0.16564445 0.016759396
0.012572932 -0.04754289 0.062083635 -0.14931254 0.03970959 -0.078937136 -0.042777628 -0.06997002
0.023783056 -0.08682482 -0.0071337954 0.06670202 -0.058060132 0.04165964 -0.057348758 -0.0136979725
0.016743023 0.014055208 0.059949987 0.008475988 -0.15550706 -0.10434092 0.035976134 -0.15639889

conv2.bias f4 [16]
00000000: 40d0 df3c 2ae7 693d 4c51 063d 7b35 03bd
00000010: 12ed d63b 9079 ba3b 66b2 803d 850c 52bc
00000020: 3d3b bc3d dfaf d13d ffed f8bc e9aa 6ebc
00000030: 4c82 4b3b 3602 193b 2c27 06bd 60ee 23bd
0.027320981 0.05710522 0.032792374 -0.032033425 0.0065590227 0.005690761 0.06284027 -0.012820368
0.09190986 0.10238623 -0.030386923 -0.014567115 0.0031053005 0.0023347265 -0.0327522 -0.040022254

fc1.weight f4 [128, 400]
00000000: 6122 143d 3a72 e53c ccdc 83bd 359d 193d
00000010: 8007 61bc 1bc0 1b3c b581 70bd afde a2bd
00000020: 519e eebc bb57 023d 1f36 1c3c 4e2c 2b3c
00000030: c1b4 95bd 953e cf3b d5b5 6a3d e6da f83b
00000040: a3e9 9fbb 49aa 56bd bb9c 83bd 80c6 82bc
00000050: 2ef7 febc 18a7 64bc 76da 82bd 3fb9 62bd
00000060: ae85 b83c bc44 29bc 9fb6 9a3d 726f 9ebb
00000070: b12a 3d3c 356a 3dbc 0cda 7b3d 0812 853d
00000080: c85d 54bd 7bbe f0bc fbbb 1dbd be6e 1e3d
00000090: 05b6 883d 247a 06bd 81ac cfbd 70d7 91bd
000000a0: e914 19bd 0536 4bbd e848 7ebd 9b9c 323d
000000b0: 7bc1 d2bb bcc4 c8bd 3dd3 90bd 1fa6 6e3c
000000c0: 49f6 093d ed70 3d3d 8fde 7b3b e774 96bc
000000d0: c6fd 1ebd 527c e2bb d378 023b b1ec 25bd
000000e0: 6940 61bc e212 393d 67cf 873d d9bb 683c
000000f0: 16c8 5fbd 7249 9fbc 669b 773d fef0 bb3d
00000100: 38d1 dfbc db53 f53b 92e1 5f3d b6eb 223d
00000110: 33e4 6f3c 1dde c4bb 1b8c 3f3d 99cd 51bc
00000120: c6c9 283d 922b 56bd 9982 65bd 861e 1a3d
00000130: b714 323d a7f8 433d cde8 363d dd56 ae3d
00000140: 62d9 543c 8609 00bd 3d3f 94bd 51b0 a23b
00000150: 96db 893c 9759 553c 1ebb cb3c bdbf 2cba
00000160: e7a6 9f3d 895a cebc f654 193b 7b03 393c
00000170: afdb 3abc 638a fcbc ddc2 24be d0f4 44bd
00000180: bcd6 ebbb 3d07 6ebc 3cac 3fbd 9f67 f1bd
00000190: 0001 07bd 7df5 4dbd 50e2 38bc 2075 9cbc
000001a0: ad39 16bd 3518 82bc 5233 013d 8917 183d
000001b0: 2ac3 5e3d f2d4 75bd ec08 13bc 4294 9d3d
000001c0: ecd0 6a3d 3560 a93d e084 4dbd 3e74 683c
000001d0: 0f4e d6bc 0b09 16bc 8673 473d 32bb 96bc
000001e0: fe3c 77bd 7821 123d cce4 89bc 027e 81bd
000001f0: e2f0 8a39 98a9 c53c 7158 663d b6f4 1bbd
00000200: a806 3abc 09e5 b8bd 1ac8 773d 40cf 42bd
00000210: bd88 7ebc 7705 55bd df9b 37bd 318a 0ebd
00000220: fce3 123d bc01 823d 52a7 ac3c 9154 b2bc
00000230: 5008 c73b 0230 8f3c 261f dbbc 39df 833d
00000240: 0e16 f53b 81ac 2039 8ef2 05bd aac0 2a3d
00000250: 6585 8ebc 394e 0a3d f395 893c 2422 293c
00000260: 9d5f 8ebb fe18 c5bb f297 a73d 513c 6abb
00000270: cbad 95bd ba53 233d 955e 5b3d ca09 24bd
00000280: 5fd9 583d 9b45 e4bc 2bc2 04bd d4da 513d
00000290: 7812 63bb b6e6 033d 5da8 813d a890 463c
000002a0: aaa7 b03c 864b 94bd aa0e 63bd bede 3dbd
000002b0: 7160 0fbd a129 3d3d 6972 a0bc b846 75bc
000002c0: cbc0 ca3c 1999 793d a1a4 3d3d a467 8f3a
000002d0: e77e 653c 530a 84bb 656a ea3c 47fd 2f3d
000002e0: a4e2 9d3d ac96 ffbd 4395 9bbb 92d9 b03d
000002f0: 0f98 013e cc53 19bd 7966 4dbd c9c6 ddba
00000300: 8ce5 303c 56c8 8c3d 059e d1bc d437 60bd
00000310: 552f 01bc db2c 5d3d 5f45 e3bc 2e74 b6bc
00000320: 800b 51bd 9c0d 0d3d 3f3a 4bbb a1ee 223d
00000330: 904d f8bc 2e02 a83c 959e f73b d167 6e3d
00000340: d5f5 a33d d3c9 fc3b 9510 91bd b59c 65bd
00000350: 0513 cf3c 3fa0 193e 4ac1 11bd cb05 7fbd
00000360: 2e06 eb3c 733c 16bc 1f43 4dbc 60cb 67bd
00000370: 4366 59bd 6838 16bd 9719 83bb acbc f43b
00000380: 25f1 98bd 6b6b 2a3d 3d65 8c3d a151 83bd
00000390: 0f17 e5bd 3cc5 963c af35 5d3c 5246 753d
000003a0: 2496 b73c dfb2 14bc 23e4 8bbd a394 f5bc
000003b0: e8d6 9d3c dfaf 223d 1fdb 743d 2f56 aa3d
000003c0: 2a1e c4bd 1a35 88bd c61d 27bd 54b0 063d
000003d0: 3ffd c0bc f503 103d a078 03bd ca98 49bb
000003e0: 2775 1fbc a409 503c 272a c5bc 773e 23ba
000003f0: 8a1e b0bc 3830 323b 748d c73d bc78 ce3c
0.0361656 0.028008569 -0.06438598 0.03750344 -0.013734698 0.009506251 -0.05871745 -0.0795263
-0.029128226 0.031821948 0.009534388 0.010447575 -0.07309867 0.006324599 0.057302315 0.007594454
-0.0048801466 -0.05240849 -0.06426378 -0.015963793 -0.031123724 -0.013955854 -0.06389324 -0.055352446
0.022524681 -0.010331329 0.075543635 -0.0048350627 0.011545823 -0.011560966 0.061487243 0.0649758
-0.05184725 -0.029387703 -0.03850935 0.03867983 0.066753425 -0.032831326 -0.101403244 -0.071211696
-0.037373457 -0.049612064 -0.062081248 0.043606382 -0.006431756 -0.09803149 -0.070715405 0.014565974
0.03368214 0.046250273 0.0038432216 -0.01836629 -0.038816236 -0.006911793 0.0019908443 -0.04050893
-0.013748267 0.045184024 0.06631356 0.014204943 -0.054634176 -0.019444201 0.060450934 0.09176825
-0.027321443 0.007486803 0.05465848 0.039775573 0.014641809 -0.0060079233 0.046764474 -0.012805366
0.04120805 -0.052287646 -0.05603275 0.037626766 0.043476786 0.047844555 0.04465561 0.085126616
0.012991281 -0.031259082 -0.07238624 0.004964866 0.01682834 0.013021848 0.024869498 -0.00065898505
0.07795506 -0.025189655 0.0023396588 0.011292334 -0.011404916 -0.030827707 -0.1608996 -0.048085034
-0.007197229 -0.014528093 -0.046795115 -0.11787342 -0.032959938 -0.050282944 -0.011284426 -0.019098818
-0.036676098 -0.015880683 0.031543083 0.03713182 0.05438534 -0.060017534 -0.008974295 0.076942936
0.05732815 0.08270303 -0.050175548 0.014187871 -0.026160268 -0.009157429 0.048694156 -0.018399809
-0.0603609 0.03567645 -0.016832732 -0.06322862 0.00026500883 0.02412872 0.056236688 -0.03807517
-0.011354126 -0.0902806 0.060493566 -0.04756093 -0.015535531 -0.052007165 -0.044826385 -0.03479976
0.035861954 0.06347987 0.021075878 -0.02176884 0.006073989 0.017478947 -0.026748251 0.06439061
0.0074794358 0.00015323052 -0.03270202 0.041687645 -0.017397592 0.033766005 0.016795134 0.010323081
-0.004344894 -0.006014942 0.08183278 -0.0035741518 -0.07308539 0.03987477 0.053556997 -0.040048398
0.052941676 -0.027865222 -0.032411736 0.05123408 -0.003464846 0.032202445 0.06330941 0.01211945
0.021564323 -0.072409675 -0.055433907 -0.046355 -0.035004083 0.04618228 -0.019585805 -0.014970474
0.024750134 0.06093702 0.04629958 0.0010940921 0.014007307 -0.004029551 0.028615186 0.042966153
0.07709244 -0.1247991 -0.004748018 0.08635248 0.12655662 -0.03743343 -0.050146554 -0.0016920205
0.010796916 0.068741485 -0.025588045 -0.05474074 -0.00788482 0.053997856 -0.02774304 -0.022272196
-0.051036358 0.034436807 -0.003101006 0.039778356 -0.030310422 0.020508852 0.0075567462 0.058204476
0.08005873 0.007714489 -0.07083241 -0.05605765 0.025277624 0.15002535 -0.035584725 -0.062261384
0.02868947 -0.009169686 -0.01252821 -0.056590438 -0.05307604 -0.036674887 -0.0040008533 0.0074687805
-0.0746787 0.041606348 0.06855247 -0.06412054 -0.11186039 0.018404596 0.013501569 0.059881516
0.02241046 -0.009075849 -0.06830623 -0.029978102 0.019267514 0.039718505 0.059779283 0.083172195
-0.09576066 -0.06650753 -0.04079988 0.032883003 -0.023558257 0.035160024 -0.03209746 -0.0030761235
-0.009732521 0.012697611 -0.024067951 -0.00062272645 -0.021498937 0.0027189385 0.09743777 0.025204055

fc1.bias f4 [128]
00000000: 49fc 76bc fe7a 11bd 930d 363d f36a 6cbc
00000010: 493a f2bc ca24 9c3c 5f3b 82bd eca1 123d
00000020: b6ff acbb c0a9 efbc c172 1abb ad54 543d
00000030: 6a15 1a3d 75f0 203d b948 283d fcd0 933c
00000040: 1437 873d 5b79 a33c 44fa a7bc 1763 333d
00000050: 3295 3d3d fc77 8a3d a19b a93c 5900 353d
00000060: 3dc8 3cbc b6f0 723c 6430 43bd 1315 013d
00000070: 4692 0f3d c762 8b3c 8dd5 7b3b ab73 8cbc
00000080: ceb1 3a3d ab96 a73c 6c7b 16bd 3eaa 003d
00000090: 6729 863d 6fea c33b ad8a 723d 0d5d f73b
000000a0: aeea 3ebc 0d1f 9f3c 064d 893c c751 683d
000000b0: 9c52 f93c 1268 d83b 571a 0d3d eb2e 6f3d
000000c0: 691c 5e3c b985 10bd 2c92 c5bb bd08 3f3d
000000d0: 2dd2 30bd 90dd c43c 03e7 02bd 897d 223c
000000e0: a01c 133d b4af 82bc 5170 093d 8a88 24bd
000000f0: e720 343b 8652 c63c c598 f63c 8e51 c6bb
00000100: 0d79 9bbc 6335 583c 25c2 d3bb 438a 7dbb
00000110: 8b0a 6fbd d2e0 753d 29ca 7e3c 1c97 203d
00000120: 0e79 763d 0207 4c3d 921c 423b 618c 9f3c
00000130: 70e9 91bd 67ac 0abd 9d9f 37bd d080 5f3d
00000140: ed97 d13c 21e6 9bbc 32e3 693b e6c8 6b3c
00000150: 695e 673d 1330 753c e7eb 1d3c 488f 64bb
00000160: b890 9c3b ff2b a8bc dcde 27bc b7a2 91bd
00000170: a2aa b63c 5cf8 843d 2866 393b e51f 26bc
00000180: a662 f0bc 51eb 1ebc 8f46 14bd 94a0 81b9
00000190: 8e65 113d c77e 193c 93a1 333d b2c3 1b39
000001a0: c2ab 9a3b e683 f93b 5d04 c8bc dfea b83c
000001b0: 2268 b63b 3c0c b9bc 6077 5fbd de57 dbbc
000001c0: 6c76 f03c 14f3 0ebd 6873 8a3d 8f97 3bbd
000001d0: 5f60 08bd 5b34 acbc 5734 fdba 6d49 873c
000001e0: ae99 65bc ebac e93c 83e6 99bc cae0 1b3c
000001f0: e84c 0ebd 7f1d 4f3c c300 0d3d 698a 383d
-0.015074798 -0.035517685 0.04444654 -0.014429796 -0.029568808 0.019060511 -0.063589804 0.035798952
-0.0052795066 -0.029255748 -0.0023566934 0.051838566 0.03761808 0.039291818 0.04108498 0.018043987
0.06602302 0.019955328 -0.020505078 0.04379567 0.046284862 0.067611665 0.020704092 0.044189785
-0.01152235 0.014827898 -0.04765357 0.03151424 0.035051607 0.017014874 0.0038426847 -0.017144999
0.045579724 0.020457586 -0.036738798 0.031412356 0.065508656 0.0059788744 0.059214283 0.0075489343
-0.011652632 0.019423986 0.01676036 0.056718614 0.030434899 0.006604203 0.034448948 0.058394354
0.013556578 -0.035283778 -0.006029388 0.046639193 -0.04316919 0.02403143 -0.03195859 0.009917625
0.03591597 -0.015952922 0.03355438 -0.040169276 0.0027485432 0.024209272 0.030102143 -0.0060522025
-0.01897862 0.013196322 -0.006462353 -0.0038687147 -0.058359664 0.06002886 0.015551128 0.03920661
0.06017404 0.04981137 0.002961908 0.019476118 -0.07124603 -0.033855822 -0.044829953 0.054566205
0.02558514 -0.019030632 0.0035688397 0.01439116 0.05648652 0.014965075 0.009638763 -0.0034875441
0.004777994 -0.020528791 -0.010246005 -0.071111135 0.022298161 0.06492683 0.002828965 -0.01013944
-0.029343914 -0.0096996585 -0.036200102 -0.00024724437 0.03549724 0.009368605 0.04385526 0.00014854854
0.004720182 0.0076146005 -0.024416143 0.022572933 0.005566613 -0.022588842 -0.054557204 -0.026775297
0.029353343 -0.034899786 0.06760293 -0.045798834 -0.03329503 -0.021021059 -0.0019317967 0.016514504
-0.014013691 0.028524837 -0.018786674 0.009514043 -0.034741312 0.01264131 0.034424555 0.045053873

fc2.weight f4 [128, 128]
00000000: d7cf 793c 5579 64bd 7178 ad3d 6a4d a7bd
00000010: 72ed 5439 7d2e a5bb 0d1a 85bd 9b84 413b
00000020: 84a4 873d ab85 b0bc b604 da3c 97dd b2bd
00000030: 296a e2bc 6b8d 773d 59b8 abbd 19f2 9b3b
00000040: 4d1f 13bd 4bcb 9e3d c8ff 573d d999 ab3d
00000050: 7964 273d 6671 863d 6def c13c ba29 10bd
00000060: 73bd 743d 8aab 1c3d 6603 f1bc a650 71bc
00000070: 1cb4 233d 01ac 3d3c 975c 873d 8cc8 383d
00000080: ba6c acbd 6d57 0fbd 3ba2 b0bd ff3a e4bc
00000090: 04d1 993d f6a5 263d 7000 293d af77 e2ba
000000a0: a612 983b 2ac0 e23c f151 8d3d 4803 a43d
000000b0: cf18 ed3b 8795 55bd eec6 82bd a2c2 963d
000000c0: fcdf f73c ca5d 1a3d 0f7a a53d 04a9 36bd
000000d0: 10fa 3dbd 7bfa 37bc 9dd7 aaba 4b20 ae3d
000000e0: 1b5a b33d 5e59 23bc b30f 1e3d ae86 dbbc
000000f0: 609c 27bd 2dda 803c 6490 893a 319d 0c3d
00000100: 4a2d a2bc 9ee3 16bd 57cc 66bc 4879 91bc
00000110: b67e a5bd 23cb 353d 3169 d53b 130e 973d
00000120: d7ce 70bd c8c7 67bd d796 c9bc a659 a2bd
00000130: f561 e7bc f1b9 3a3d 2fda 59bd e6a4 90bd
00000140: 1994 67bd d327 94bd 1944 b43d 4e43 7b3d
00000150: 9708 873d 5af3 903c 6b3e 2e3c 7fe2 13bb
00000160: 3511 04bd 0145 0cba c039 9d3d 56e1 843c
00000170: 8dcf 173d c47c b8bc 4943 f83b e974 a23d
00000180: 8bce 78bd dbe8 a4bd 1ac1 77bd 49e7 3ebd
00000190: 93f5 833d f64d 963d ab93 19bb f237 fdbc
000001a0: ee22 773d 0664 7abc 0b1d a3bb 7126 84bc
000001b0: af7a a83b 831a a63d 1099 29bd fa49 a5ba
000001c0: 1231 47bd 5a83 a63d 8d97 7dbd f9be 843d
000001d0: 8cf2 18bd 0e1e 133c 1f91 8dbd 61a6 913c
000001e0: ad40 05bd 814e 3f3d 7ae3 b0bd 23b2 3dbd
000001f0: cfc8 50bd 940e a53a 2791 943b cd8a 20bd
00000200: 1901 e03c 2ef8 943d 89ba 69bc 2579 3c3d
00000210: 3c11 9dbd 7013 7e3c d46b 293d 5050 65bd
00000220: c945 bd3b 2719 a7bc 5b6f 7d3d c40a 8e3c
00000230: 0bdb 14bc 252a 4f3d 710c dfbc 756e 0cbc
00000240: 7ddc 17bd cfb1 04bc f4dc 0ebd f7a8 243d
00000250: 17f1 443d 38b3 33bc 6546 56bd ab78 adbc
00000260: 9b42 77bd ab29 a03d 1ee8 d93c f201 9fbd
00000270: a341 893d 6ff1 973c 9217 1d3d ae3c 973c
00000280: d29d b43d 9543 18bd 3bb9 243d 6c6e a8bd
00000290: 27d9 32bd 44f6 8fbd 85f3 88bd ac69 833d
000002a0: 5665 abbd ea8e a63d 5184 183a dcee a2bc
000002b0: af7f 383d 15fb 73bd a4ae 1abc 7fa1 443d
000002c0: e5d3 73bd 91d8 ae3c 147e 9ebd 4b18 9239
000002d0: d785 dbbc 8027 19bd 1cdf 3e3d 04d4 f5bc
000002e0: ebd1 4f3d 81ef 34bd 9173 833b 6745 cbba
000002f0: 1a99 bb3c 0061 b23d a080 83bd 4018 a03d
00000300: 16d5 523d f456 5fbd 248e 743d 8d1c 22bd
00000310: 0e76 d4bc bc71 ac3a 6bce 68bd f151 cdbc
00000320: 370e 94bd 00d9 b8ba 4ecf fe3a 5fe3 edbc
00000330: 3207 1d3c e8c2 113b d91f 733c 6b24 a93d
00000340: ba49 b33d 329f a93d 997e 733c 9f3a a93c
00000350: b1dd e9bc 5ef7 a83d dea1 a7bb 75a9 b23c
00000360: 4942 4b3d b80d 3e3b 1468 2c3d 911b aabc
00000370: d9e4 c83c 6e58 463d ded5 973d b1c2 8cbb
00000380: 1ce4 0fbd cb41 9c3d 33d5 abbd c4a6 463b
00000390: f90b 943d b518 983d 5c1c 893c d857 9abc
000003a0: 7eaa 94bd 83e5 abbd 1cc3 71bd 344d a33d
000003b0: 5b71 4fbd 724d 3c3d 26e1 8dbd 26d9 5b3c
000003c0: c2e5 083d 82b2 c0bc 0558 fb3c 1b0e 2fbd
000003d0: de55 70bd e983 74bd 9217 b2bd 1221 503d
000003e0: 8d05 19bd cd00 8a3d 0a87 8e3c f0c3 063d
000003f0: 6414 a5bc 01cf 89bd 508d d6bc f2ae 6fbd
0.015247307 -0.055779774 0.08470238 -0.081690624 0.00020306351 -0.005040942 -0.064991094 0.0029528502
0.06623176 -0.021548113 0.026613574 -0.08733671 -0.027638512 0.0604376 -0.08384771 0.004759085
-0.035918523 0.07753619 0.052734166 0.083789535 0.040867303 0.06564598 0.023673737 -0.035196044
0.059750985 0.03824953 -0.029420566 -0.014728701 0.039966688 0.011576653 0.06609457 0.04511313
-0.084191754 -0.034995485 -0.08624693 -0.027860163 0.0751057 0.040685616 0.041260183 -0.00172781
0.004640895 0.027679522 0.06900395 0.08008438 0.0072356234 -0.052144554 -0.06385599 0.07361342
0.030258171 0.0376871 0.080799215 -0.04459478 -0.046381056 -0.011229153 -0.0013034228 0.08502253
0.08757421 -0.009970037 0.03858919 -0.026797619 -0.040920615 0.015729034 0.0010495302 0.034329597
-0.019796986 -0.036838166 -0.014086804 -0.017758027 -0.08080809 0.04438318 0.006512784 0.07375731
-0.058791008 -0.05658701 -0.024608059 -0.07927255 -0.028244952 0.045587484 -0.05318659 -0.07062702
-0.05653772 -0.07234158 0.08802051 0.061343484 0.06593435 0.017694164 0.010634999 -0.0022565422
-0.032242972 -0.00053508586 0.076770306 0.01622073 0.03706317 -0.02252043 0.0075763804 0.07932455
-0.06074385 -0.08052226 -0.06048689 -0.04660729 0.06443324 0.073390886 -0.0023433964 -0.030910466
0.060336046 -0.0152826365 -0.0049778274 -0.016131612 0.005141578 0.081105255 -0.041405737 -0.0012610548
-0.04863078 0.08130522 -0.06191211 0.06481738 -0.037340686 0.008979334 -0.06912445 0.017779531
-0.032532383 0.046705727 -0.08637138 -0.046312463 -0.050972756 0.0012592846 0.004533905 -0.03919487
0.027344273 0.07273899 -0.014265665 0.04601397 -0.07669303 0.015507564 0.0413626 -0.055984795
0.0057761413 -0.020397736 0.061873775 0.017339118 -0.009085427 0.0505773 -0.027227612 -0.008571257
-0.03707551 -0.0080990335 -0.034878686 0.0402002 0.048081484 -0.010968022 -0.052313227 -0.021175703
-0.060366254 0.078204475 0.02659994 -0.07764043 0.06701972 0.018547742 0.038352557 0.018461552
0.08819164 -0.037173826 0.040215712 -0.08224186 -0.043664124 -0.07029393 -0.06687073 0.0641664
-0.08368938 0.081327274 0.00058180565 -0.019889288 0.045043644 -0.059565622 -0.009441052 0.048005577
-0.05952825 0.021343501 -0.07738891 0.0002786539 -0.026797218 -0.037391186 0.046599492 -0.030008323
0.050737303 -0.04417372 0.0040115793 -0.0015508354 0.022900153 0.087099075 -0.06421018 0.07817125
0.051472746 -0.054526284 0.05970587 -0.03957801 -0.0259352 0.0013156454 -0.05683748 -0.025063487
-0.07229274 -0.0014102757 0.0019440444 -0.029039083 0.009584235 0.0022241417 0.014839136 0.08258899
0.087542966 0.08282317 0.014861726 0.020657836 -0.028548094 0.082503065 -0.0051157316 0.021809319
0.04962376 0.0028999876 0.042091444 -0.020765098 0.024523186 0.048424177 0.07413839 -0.00429567
-0.03512965 0.076297365 -0.08390274 0.0030311802 0.07228846 0.074265875 0.016737156 -0.018840715
-0.07259081 -0.08393385 -0.05902396 0.0797371 -0.050645214 0.045972295 -0.06927709 0.013418471
0.03342224 -0.02352262 0.03068162 -0.04273806 -0.05867564 -0.05969611 -0.08695902 0.05081279
-0.03735881 0.06738434 0.017398376 0.032901704 -0.020151325 -0.06728936 -0.02619043 -0.05851645

fc2.bias f4 [128]
00000000: fe7f 8e3c 409f acbd 3bc5 17bd c04f 433d
00000010: deaa bbbb ba87 9fbd 966f 103d 9fa9 32bd
00000020: c20e ae3d d78c 1dbb 1cb0 4f3c f20b 3bbd
00000030: 9109 4c3d a60c 983d 51d8 84bd ec73 283c
00000040: 7430 893d eff4 533d 8bd3 62bd 09ea 363d
00000050: cf55 143d 6299 143d d0ad 1e3d 8f1e 8ebd
00000060: fa98 d33c d66a 6c3d 984f 81bd 963e b8bc
00000070: 27fa 983d 0b85 afbd 1c14 96bd ae6a aa3d
00000080: 0d88 483d fa15 5d3c 9ff1 d0bb 9ae2 53bc
00000090: 7e55 87bc 535a 433d 1d20 b8bc f279 0abd
000000a0: c93f 37bd b73c b2bb 08a2 88bd 4818 90bc
000000b0: c519 b0bc 0e2f 443c 1a62 02bd fd5c 493d
000000c0: 57da 5bbd 7967 95bc d66f 91bd 78f4 853b
000000d0: 4a5a caba addb eabc 07d1 8cbd d779 cf3c
000000e0: 8431 6a3d 8613 3d3d 78ec 443b 89a6 80bc
000000f0: 7748 bc3b a82a 16bc 1eed 063d 29d3 5f3d
00000100: a317 67bd 94d8 193d 96c0 b1bd 4758 4abd
00000110: 24b2 dc3c 0997 803d d9f4 dd3c 82be 88bd
00000120: ee50 ea3c b902 19bd bed4 193d 5d78 37bd
00000130: c506 12bd b302 7cbd acc5 003d e9dc 81bc
00000140: 6063 c1b9 bbc4 a8bc 7d15 ffbc 0488 6e3d
00000150: cdfe 913d e277 a6bd ea5d d23c 79bc eabc
00000160: 74c4 6a3c b18c af3d bca5 d13c fbb3 74bd
00000170: ddcf a93a 61cf 793d 7ae6 23bb 4cdf a0bd
00000180: 16bb 3bbc 4a32 afbd 5f00 a5bd f74d 0e3b
00000190: 6ab6 4ebc 8414 8d3c 94ca 06bd c026 78bd
000001a0: 32d1 82bc 157d e5bb 53d0 1fbd 3398 793c
000001b0: 68a2 32bd 1aba a43c 06f9 743d e080 64bd
000001c0: 1a6f c23c 9af1 97bd a64f 8f3d bdad 07bd
000001d0: 095d 143d 285c 22bd 16c8 6cbd c7e9 043d
000001e0: 358e 3fbc 334f 7a3d 1390 fcba 010f 113d
000001f0: 75cf ac3d d571 72bd c67a 28bc 4342 86bd
0.017395016 -0.08428812 -0.037053328 0.047683477 -0.005727156 -0.0778956 0.035262667 -0.043618795
0.084989086 -0.0024040246 0.012676265 -0.04566569 0.04981381 0.074242875 -0.064865716 0.010281544
0.06698695 0.05174726 -0.055377524 0.044656787 0.036214646 0.03627909 0.03873998 -0.06939422
0.02582978 0.057719074 -0.063140094 -0.02249078 0.07469588 -0.08570298 -0.07328054 0.08321129
0.048957873 0.013494009 -0.0063764597 -0.012932444 -0.016520258 0.04769356 -0.02247625 -0.033807702
-0.044738565 -0.0054393667 -0.0667153 -0.017589703 -0.021496663 0.011974109 -0.03183184 0.049160946
-0.053675022 -0.018237816 -0.07101409 0.004087981 -0.0015438285 -0.028669203 -0.06875806 0.025326652
0.057176128 0.046161197 0.0030048173 -0.01570441 0.005745943 -0.0091654435 0.032940976 0.054644737
-0.056419026 0.03756006 -0.08679311 -0.049400594 0.026940413 0.06278808 0.027094292 -0.066769615
0.028603043 -0.037356112 0.037556402 -0.04479252 -0.035650987 -0.06152601 0.031438515 -0.015852408
-0.0003688587 -0.02060162 -0.031138176 0.058235183 0.071286775 -0.081283346 0.025679547 -0.028654324
0.014329065 0.08571757 0.025591724 -0.059741955 0.0012955625 0.060988788 -0.00250092 -0.078550905
-0.011458179 -0.08554514 -0.080567114 0.002171395 -0.012616733 0.017221697 -0.032908037 -0.06058383
-0.015968893 -0.0070034363 -0.039017033 0.015234041 -0.043611914 0.020108271 0.0598078 -0.055786967
0.023734618 -0.07419129 0.069976136 -0.033124674 0.036221538 -0.03963867 -0.057808004 0.03244951
-0.01169162 0.061110687 -0.0019269012 0.0354147 0.08438007 -0.05919059 -0.010283178 -0.06555607

fc3.weight f4 [10, 128]
00000000: 1956 03be c6c6 f0bd 0acd 893d e6fa bbbd
00000010: 121b 7639 7a68 debd 68d4 ddbd cfd1 6fbd
00000020: eb66 3d3d b15d 3d3d efab 173e 5eb4 2e3d
00000030: eaab 8e3c 77e6 a23d 14f9 753d f6ac 10be
00000040: 0092 febc 5a3b 0bbd a3a4 87be f682 913c
00000050: 5ea6 27be 36ac 13be e05b 463c 6761 63bc
00000060: 2c7b c0bd 1938 b13d bb21 85be f2cc 81bd
00000070: 23d7 a1bb 955e a13d a2af ac3d 2087 ddbd
00000080: db1a 043e b01c bf3d aa4b 13be bca2 08be
00000090: 6d5f 36be 8f59 3abd e0db a0bb c60a 52bc
000000a0: 828a e13d 1300 52be a30b 203d 2f15 3d3d
000000b0: c1ee 03be 1c21 5bbe 854a b1bd a50e 433b
000000c0: 547a bc3b 4f1c 723c 1b58 adbe 737f 2c3d
000000d0: 79b1 cd3c f7bc 313d 2f1e 76bd 2835 71be
000000e0: 42be 58be eab2 43be 68e4 27be 0afa d93d
000000f0: 7690 bdbe 9a7d 54be bf9a 8e3d b464 de3c
00000100: 8bb1 103d 75b7 11bd aa8b 1a3d 8163 1cbe
00000110: 4a44 cebd 8b1b 51be 6d20 253d 248c 533d
00000120: 8b12 89bd 66d7 5b3c 399d 723c 07db 1dbe
00000130: 845b a7be c7d4 4abd 2222 d6be 7668 413d
00000140: 3438 13be 4ffd 3a3d d3c0 93be c81b ae3c
00000150: e6e6 523d 7713 8f3d 279f 653d d01c 843d
00000160: b429 88bd 85a0 cc3d 8e58 bebd c14e 233d
00000170: 0143 5fbd c827 bcbd f25d 95bb 91be 3cbe
00000180: aabe 223d f109 1bbe eecd 80be 6c9f 133c
00000190: ed76 c93d d5ed de3c 5b1a 8b3d 20e2 a83c
000001a0: 7e5f 4fbe 2138 40bd 1228 a8bd ca5e f03d
000001b0: 9ac3 60be 2b62 3cbb 5c5b 33be fdb6 9c3d
000001c0: 368c fabd a791 0ebe facc 563d f79a dd3d
000001d0: 2b8d 713d b7f1 fc3c e15b 2a3e 4ffe 8ebc
000001e0: 85e5 2c3e 2529 89be 0e96 033d ec64 40be
000001f0: 8862 763d da46 7ebe a33f 76be 3b21 51be
00000200: f933 7dbe d2e0 c73c e6d3 a03d b592 ffbd
00000210: 9eb7 8bbe d908 0f3d 21ec c93d 5f75 f43d
00000220: 3f92 7bbe 0ad0 8a3d 731d 293e 0957 73bd
00000230: e6b1 36be 48ef 9dbd 63da 213d 1561 6dbe
00000240: 4e02 c93d 1032 793d ae0f 733d 4bd4 163b
00000250: cdf6 0ebe 5a14 483d a69b 793d b0f3 863c
00000260: 7b45 173e 8d84 c6bd b190 073d 566d 0f3b
00000270: deb9 8dbe 0cf5 3dbe 017e 42be f82b a1bd
00000280: b041 0a3e 854b 48be e461 d7bc e51c 5ebe
00000290: 6c11 743d 27a3 babc 3b0e 073e 328c d03d
000002a0: f22a 6a3d aabf 27bd 984b 0cbe e0ce f83d
000002b0: 0765 d03d aa86 4d3d 50ce 863d ce0e d03d
000002c0: 9bf9 c1bc 2bde 51be 3986 3e3d e99f 91bd
000002d0: 3579 c8bd 832a 0abe 8b19 de3d 0a97 a53d
000002e0: 24b1 823d defc 8b3c ea92 c6bd 6584 a93d
000002f0: 3abe 203d c1dc 21be 9597 cd3d 853f b13d
00000300: 1239 1ebe 0a2f 8bbe 64c5 93be f187 85bd
00000310: 0d37 21be 7a35 ab3d 28a2 92bd a976 8e3d
00000320: 12a0 fcbd abca 9fbe fbb5 13be 73d2 25bc
00000330: f2ac 51be f69d d6bd 27bf 13be 8e14 70bd
00000340: 84e6 bf3d aa4b e83c 91fc 3cbd f687 b63b
00000350: b7e8 95be ddfc 0bbe 37b9 babd 4d8e b93d
00000360: f5ee 4abe f140 0a3d a671 60be e36d 823d
00000370: 3461 c6bd 4276 a53c 5db9 e83d a427 763b
00000380: b3d2 bcbe f642 f0bb d6b8 9abc 284f 2ebe
00000390: b474 72bd 002e 32bc ae3c d13d 6174 62be
000003a0: f5ab 313d 9879 c6bd a52e 863c 70c5 22bd
000003b0: 6031 2f3d b749 92be e006 15be 8674 e3bd
000003c0: 8a35 cb3d 1ca2 8abd 6ecb c63d e30c 43be
000003d0: da5f 79be 1e85 5e3d baaf 993c 30f7 4f3e
000003e0: 650b 203e 5163 babd fa2b b9be 1f82 603d
000003f0: be33 b2bd c061 9dbd ad01 7bbe ed09 e4bb
-0.12825812 -0.11756663 0.06728561 -0.091787145 0.00023470473 -0.10859771 -0.10831529 -0.0585497
0.04624073 0.04623193 0.14811681 0.04265248 0.01741596 0.07954114 0.060051993 -0.1412848
-0.031075478 -0.03399215 -0.26492795 0.017762642 -0.16372058 -0.14421162 0.012106866 -0.013878203
-0.09398493 0.08653278 -0.26002297 -0.06337918 -0.0049389764 0.07879368 0.08431937 -0.10816789
0.1290087 0.093316436 -0.14384332 -0.13343328 -0.1780984 -0.045495566 -0.0049090236 -0.012819951
0.110127464 -0.20507841 0.039073598 0.04616278 -0.12884046 -0.21399349 -0.086567916 0.0029763367
0.0057518873 0.014777257 -0.33856282 0.042113733 0.02510904 0.0433931 -0.06008738 -0.23555434
-0.21166328 -0.19111219 -0.16395724 0.10643394 -0.37024277 -0.20751038 0.06963109 0.027147628
0.03532557 -0.03557535 0.03773085 -0.15272333 -0.10071619 -0.20420663 0.040314127 0.05164732
-0.0669299 0.013418054 0.014807993 -0.15415584 -0.32687008 -0.049519327 -0.41822916 0.047218762
-0.14376909 0.04565173 -0.2885805 0.021253482 0.051489733 0.069861345 0.056059983 0.06450808
-0.06648579 0.09991554 -0.09294234 0.039870027 -0.05450726 -0.09187275 -0.0045583183 -0.1843207
0.039732613 -0.15140511 -0.25157112 0.009010177 0.098371364 0.027213017 0.06792136 0.020615637
-0.20251271 -0.04692853 -0.08210768 0.117368296 -0.21949616 -0.0028745036 -0.1751532 0.0765209
-0.12233774 -0.1392275 0.052441575 0.10820573 0.05897252 0.030876977 0.16636612 -0.017455248
0.1688443 -0.26789203 0.032125525 -0.18788499 0.06015256 -0.24831715 -0.24047713 -0.20422833
-0.24726857 0.024399195 0.078529164 -0.12479154 -0.27288526 0.034920547 0.09859491 0.11936449
-0.24567507 0.067779616 0.1651514 -0.059409175 -0.178413 -0.07711655 0.03951491 -0.23181565
0.09814893 0.06083876 0.059341125 0.002301472 -0.13961335 0.048847534 0.060939454 0.016473621
0.14772598 -0.09693251 0.033096973 0.0021885238 -0.27680868 -0.18550509 -0.18993379 -0.078697145
0.1350162 -0.19560058 -0.026291795 -0.2169071 0.059586927 -0.022782875 0.13189022 0.1018299
0.057169862 -0.04095427 -0.13700712 0.12148833 0.101755194 0.050177254 0.0658232 0.10159074
-0.023678591 -0.20494907 0.046514723 -0.071105786 -0.097887434 -0.1349278 0.10844716 0.08085449
0.06381443 0.01708835 -0.096959904 0.082772054 0.039243914 -0.15806867 0.100386776 0.086546935
-0.15451458 -0.27184325 -0.28861535 -0.065200694 -0.15743656 0.08359809 -0.07159835 0.069562264
-0.123352185 -0.3120931 -0.14424889 -0.010120976 -0.2047613 -0.104793474 -0.14428388 -0.058613352
0.09370139 0.028356392 -0.046139304 0.005570407 -0.2927911 -0.13670678 -0.09117358 0.09060345
-0.19817717 0.03375334 -0.21918353 0.063686155 -0.09686509 0.020197991 0.1136348 0.0037560249
-0.368795 -0.007332201 -0.018886965 -0.17022383 -0.059193328 -0.010875225 0.10216652 -0.22114708
0.04337688 -0.09691161 0.016379664 -0.039739072 0.042771697 -0.28571865 -0.14553404 -0.111062095
0.09922321 -0.06769201 0.0970677 -0.19047885 -0.2435297 0.05432617 0.01876055 0.20309138
0.15629347 -0.09100974 -0.36166364 0.054811593 -0.08701275 -0.0768466 -0.24512358 -0.006959191

fc3.bias f4 [10]
00000000: 6e87 91bb 2f8d 793d 431b 11bd 7d9a cd3c
00000010: f934 463d a1c1 323b 2e26 afbd 7849 95bc
00000020: b541 2d3d e19a 1a3b
-0.0044411933 0.06092566 -0.03542639 0.02509808 0.048390362 0.0027276056 -0.08552204 -0.01822351
0.04229899 0.002359085
